week4/models/lj_net_1000_20.pt (torch, 3080 bytes, 3 tensors)

scalar_net.0.weight f4 [64, 1]
00000000: d454 5f3e 8296 913e c832 013f 94b6 49bf
00000010: 7423 e3be e615 3fbf 5571 7b3f a148 733f
00000020: ca7c 2fbf 7fea 903e 46fb 43bf 677c e33d
00000030: 4022 c1bc aa15 00bf 0cc6 14bf d860 6ebe
00000040: 302d a73d 54dd 25bf 09b3 1f3e 7581 553f
00000050: d4b4 00bf 94e7 8d3e 4ab4 40bf 3027 c6be
00000060: bc99 44bf eca7 3c3f 0a9f e33d 08a5 48be
00000070: 0c91 92be 5c34 ed3e e8bb 2bbf 904f 22bf
00000080: bfaf 453f 8c0c c4be 40fb 433d 805d 343d
00000090: 04f4 c2be d885 b5be 40cf f63d b337 bb3e
000000a0: cbad fa3d cbd4 1d3f e00c 6abe d704 de3e
000000b0: 7703 da3b 8e58 e33e 009a 40bb 4384 25be
000000c0: da6d 65bf 93a3 eb3e 5a03 36bf 5fa4 0b3e
000000d0: e4d5 55bf 5202 77bf 2f45 543f cc61 47bf
000000e0: 72ce 213f 7637 7ebf 72f7 083e f980 523f
000000f0: 40e3 39bd 52b9 2e3f 8399 a3be a26d f93e
0.21809703 0.2843514 0.5046811 -0.7879422 -0.44362986 -0.7464279 0.98219806 0.950327
-0.6854979 0.28303906 -0.7655529 0.11107712 -0.023575902 -0.50033057 -0.58114696 -0.2327913
0.08162916 -0.64790845 0.1559564 0.8340066 -0.5027592 0.27715743 -0.752751 -0.38701773
-0.7679708 0.7369373 0.11114319 -0.19594204 -0.28626287 0.4632901 -0.670836 -0.6340265
0.7722129 -0.38290823 0.047847033 0.04403448 -0.38076794 -0.35453677 0.120512486 0.36565933
0.1224018 0.6165282 -0.22856474 0.43363068 0.006653245 0.444035 -0.0029388666 -0.16163735
-0.89620745 0.46023235 -0.71098864 0.13636921 -0.83529496 -0.96487916 0.82918066 -0.778836
0.63205636 -0.99303377 0.13375643 0.82228047 -0.045382738 0.68251526 -0.31953058 0.48716456

scalar_net.0.bias f4 [64]
00000000: 764c 6a3d fde9 3b3e e1f3 82bf 88af 91be
00000010: 9075 79be 1f43 c13f 0ad4 e9be 25ce e6be
00000020: 7614 303f 77a0 743f a045 2dbd 554c 7d3f
00000030: 9a66 37bf 949c b13e d22e 253f 884d 71be
00000040: d4be e5be 6809 d23e bf64 e13e a437 473f
00000050: f0a0 91bd 51ea 10bf 64e0 883e 6059 c23e
00000060: b454 a03e 3c3e 61bf 5178 513f 4079 053d
00000070: d046 11bf 4b32 70bf 8e11 7ebf 6895 70bf
00000080: 494e 40bf c473 5a3f f82b 0abf a82a 733f
00000090: 42b2 3bbf 1cd8 18bf dcf7 74bf f5f3 dfbe
000000a0: a06b 403f cc83 023e 9c9c f8be d68b 8d3e
000000b0: 50d4 943f dffa b9bc 6cf9 bdbe 4354 713f
000000c0: fcea 6c3f 3a0d b93e 006a 133d 95ee 843d
000000d0: 7c7c 1cbf f02d 433f f019 e5be 3c8a acbe
000000e0: 0e70 22bf 8042 0a3e 79e9 563e 902f 7cbf
000000f0: d29d 2bbf 6b4d 51bf 656a 9c3f 7ae9 843f
0.057201825 0.18350978 -1.0230676 -0.28454232 -0.24361253 1.5098609 -0.45669585 -0.4507915
0.6878122 0.9555735 -0.042302728 0.989446 -0.7164093 0.34689772 0.6452457 -0.23564732
-0.44872153 0.410228 0.44022176 0.77819276 -0.071107745 -0.5660754 0.26733696 0.37958813
0.31314623 -0.8798559 0.81824213 0.032586336 -0.56748676 -0.9382674 -0.99245536 -0.93977976
-0.75119454 0.85332894 -0.5397334 0.94986963 -0.73318875 -0.59704757 -0.95690703 -0.43740812
0.7516422 0.12745589 -0.48556983 0.2764575 1.1627293 -0.022702632 -0.37104356 0.942692
0.9254606 0.36142904 0.03598976 0.064908184 -0.6112745 0.7624197 -0.4474635 -0.33699214
-0.6345223 0.1350193 0.209875 -0.98510075 -0.6703769 -0.81758755 1.2219969 1.0383751

scalar_net.2.weight f4 [1, 64]
00000000: 662e 91bc 7c97 2d3b d1b6 ad3e 0402 6fbd
00000010: 28b5 b13c 3dd8 2b3f 20b6 bdbd 798c 20bd
00000020: 60e3 5cbc 1446 bc3d 62f2 83bd ba52 643e
00000030: 3654 bdbd 20e2 0a3c 9e8b 88bd 2292 b3bd
00000040: 50c2 673d ca2a ebbd baef 1a3e c6e1 1dbd
00000050: e0c4 f5bd faa2 ae3e d6b6 c1bd e0aa 71bc
00000060: b63d febd 4da3 84be 1df8 5b3e 3c92 063d
00000070: 8abd a43d b6a8 113e fcf0 f1bd f4a2 1f3d
00000080: 8505 2cbe dbee fa3e 16f7 d93d 9d60 383e
00000090: 7849 1dbd 347e 3dbd e80a d1bc 4c4c 86be
000000a0: f335 463d 136e 823d f40d 20bd c089 cf3d
000000b0: 6613 0f3e acaa c63d c43e 1f3d cc49 3f3e
000000c0: bece b03d 9377 e0bb c4a5 553d 6a5f 043e
000000d0: b06f 1cbc 5cd5 51bd b9ac c0bd c8a1 87bc
000000e0: 1992 5cbe e0ca fdbb 070e f3bc c973 c3be
000000f0: 8c62 66bd a869 1abf c9ef 833e aa2e 273e
-0.01772232 0.0026487997 0.3392854 -0.05835153 0.021692827 0.6712683 -0.09263253 -0.039196465
-0.013481945 0.09193054 -0.06442715 0.22297183 -0.092445776 0.008476764 -0.06667255 -0.08768107
0.056581795 -0.11482771 0.15130511 -0.038545392 -0.120004416 0.34108716 -0.09458701 -0.014750212
-0.12414114 -0.2590584 0.21481366 0.032854304 0.08043964 0.14224514 -0.11813542 0.038973764
-0.1679898 0.49010357 0.10642831 0.18005605 -0.038400143 -0.046262935 -0.025517896 -0.26230085
0.048391294 0.06368651 -0.039075807 0.101336956 0.13972244 0.09700522 0.038878217 0.18680495
0.08633183 -0.006850192 0.05216004 0.12927023 -0.009548113 -0.051228866 -0.09407944 -0.016556635
-0.21540107 -0.007745132 -0.029669775 -0.38174275 -0.056246325 -0.6031747 0.2576888 0.16326395
