week4/models/lj_net_8000_50.pt (torch, 3080 bytes, 3 tensors)

scalar_net.0.weight f4 [64, 1]
0.60387677 1.8342232 0.9852576 -0.93570924 1.1223538 0.20086484 -0.6648259 -0.7787063
-0.24033886 0.7065571 -0.080545954 0.58771485 0.0012259483 -0.8706298 -0.21042055 -0.028799176
-0.85518336 1.2522635 0.8372051 -0.014002042 -0.051280618 -0.2871959 1.2033647 0.840306
0.68044657 -0.5585464 0.66882056 1.1667311 0.7236481 -0.1772995 -0.7632619 0.2426668
1.1545662 0.6454798 -0.521013 -0.9652295 1.2033169 1.2051605 -0.1490177 0.48253128
0.53852683 1.8708773 -0.6338831 -0.6267619 0.60357004 1.2001101 -0.32636702 -4.5647273
-0.47317597 1.2370416 -0.67687845 -0.15159953 -0.2371442 -0.20243 -0.89859295 -0.97359955
0.16985644 0.69629073 -0.12853026 -0.5347464 0.86522985 0.0498842 -0.15894127 1.1407518
00000000: ab97 1a3f d3c7 ea3f d839 7c3f a48a 6fbf
00000010: 4aa9 8f3f 83af 4d3e 0832 2abf 4c59 47bf
00000020: 641b 76be ede0 343f 47f5 a4bd 7b74 163f
00000030: 00b0 a03a 98e1 5ebf 7c78 57be 40ec ebbc
00000040: 4ced 5abf 2c4a a03f 1353 563f d268 65bc
00000050: a00b 52bd 570b 93be db07 9a3f 4b1e 573f
00000060: bf31 2e3f e6fc 0ebf d337 2b3f 7257 953f
00000070: 0041 393f 008e 35be 2265 43bf a57d 783e
00000080: d3c8 933f 2a3e 253f 1c61 05bf 4819 77bf
00000090: 4a06 9a3f b342 9a3f 1998 18be 570e f73e
000000a0: e5dc 093f e878 ef3f 2a46 22bf 7873 20bf
000000b0: 9183 1a3f 359d 993f 9419 a7be 3f12 92c0
000000c0: 1f44 f2be 6157 9e3f e847 2dbf e83c 1bbe
000000d0: eed5 72be cf49 4fbe 300a 66bf d23d 79bf
000000e0: d9ee 2d3e 1c40 323f 709d 03be 24e5 08bf
000000f0: b47f 5d3f 6053 4c3d 80c1 22be 2804 923f

scalar_net.0.bias f4 [64]
-0.2472654 -3.2178552 0.43274385 0.07603955 0.2694434 0.40714824 -0.595307 -0.7123729
1.4418449 0.057922326 1.1335247 -1.5749514 -0.116404414 -0.21725142 1.2623667 -0.1786964
-0.067849874 -0.5309689 -1.0638003 0.60887176 -0.327757 1.722903 -0.83244526 0.33352283
-0.54429764 0.38105392 0.1265774 -0.60854775 0.49877316 0.22725558 -0.7170042 1.263898
-1.1867582 -0.4355782 -0.6454587 0.2784034 -1.326374 -1.0298729 0.89397377 0.8521258
0.2508336 -3.3874438 -0.20525527 -0.0392884 -0.017740605 -1.0920135 -0.2722093 7.3060546
0.65075755 -0.04652359 0.3170886 -0.22323692 1.4226815 1.214427 -0.84679806 0.35882866
1.2107067 0.30550623 -0.26210403 0.58944535 -1.0766971 -0.36850095 -0.7890097 -1.3516253
00000000: 2433 7dbe 57f1 4dc0 9a90 dd3e a0ba 9b3d
00000010: 7cf4 893e bc75 d03e 0a66 18bf 125e 36bf
00000020: 608e b83f f63f 6d3d 5617 913f 0298 c9bf
00000030: 7065 eebd 2877 5ebe 3b95 a13f 30fc 36be
00000040: e0f4 8abd 94ed 07bf 9c2a 88bf 05df 1b3f
00000050: c4cf a7be 1688 dc3f 221b 55bf 81c3 aa3e
00000060: 1757 0bbf 8019 c33e 829d 013e c9c9 1bbf
00000070: 325f ff3e b0b5 683e 968d 37bf 69c7 a13f
00000080: b1e7 97bf 1b04 dfbe c83c 25bf e48a 8e3e
00000090: a0c6 a9bf e0d2 83bf 77db 643f eb24 5a3f
000000a0: 436d 803e e1cb 58c0 702e 52be e0ec 20bd
000000b0: bf54 91bc 19c7 8bbf 045f 8bbe 33cb e940
000000c0: 0c98 263f 858f 3ebd 7059 a23e 3898 64be
000000d0: 6d1a b63f 5872 9b3f c2c7 58bf 64b8 b73e
000000e0: 70f8 9a3f 506b 9c3e 8032 86be e4e5 163f
000000f0: 36d1 89bf 28ac bcbe 8afc 49bf 0f02 adbf

scalar_net.2.weight f4 [1, 64]
0.24422736 -3.1998904 0.16332039 -0.106695816 0.3524163 0.024433153 -0.12148097 0.021419704
-1.452232 0.272593 -0.27093512 1.4587916 -0.06555067 0.03408049 -1.0933893 0.07752006
0.09527092 0.4290102 0.5178108 -0.05118891 -0.047330678 -2.2271025 0.4205841 0.3318957
0.3655222 0.04508607 0.34701607 0.4550226 0.27295548 0.06878385 0.074425325 -0.042200398
0.47853708 0.30304727 -0.07909873 0.0112413615 0.5041239 0.47746056 -1.067179 0.042052418
0.11635554 -2.884142 -0.08144805 -0.00016389787 0.26411647 0.47480705 -0.1091876 -12.915139
0.073683634 0.3212573 -0.0762693 0.08398034 -1.8574768 -0.8009084 0.07595885 -0.057884514
-0.047882132 0.14538176 0.058941364 -0.07792421 0.6695532 -0.08290842 0.10166977 0.62670434
00000000: bd16 7a3e 01cb 4cc0 763d 273e 5683 dabd
00000010: e96f b43e 0928 c83c 04cb f8bd 6078 af3c
00000020: bde2 b9bf 4f91 8b3e 02b8 8abe afb9 ba3f
00000030: 6e3f 86bd fc97 0b3d 2ef4 8bbf d6c2 9e3d
00000040: 661d c33d 3aa7 db3e 408f 043f 76ab 51bd
00000050: d0dd 41bd d988 0ec0 cd56 d73e 3cee a93e
00000060: ba25 bb3e 2cac 383d 17ac b13e b9f8 e83e
00000070: d2c0 8b3e 8cde 8c3d 4e6c 983d 53da 2cbd
00000080: d002 f53e 0329 9b3e 84fe a1bd b02d 383c
00000090: 440e 013f b675 f43e 5299 88bf 283f 2c3d
000000a0: d04b ee3d c895 38c0 3cce a6bd 00dc 2bb9
000000b0: 463a 873e e919 f33e c09d dfbd 69a4 4ec1
000000c0: 72e7 963d d67b a43e 1433 9cbd e2fd ab3d
000000d0: cdc1 edbf 5508 4dbf 5090 9b3d 5018 6dbd
000000e0: 0e20 44bd f5de 143e 806c 713d ba96 9fbd
000000f0: d767 2b3f e4cb a9bd 3e38 d03d b26f 203f
