week4/models/lj_net_1000_20.pt (torch, 3080 bytes, 3 tensors)

scalar_net.0.weight f4 [64, 1]
000000 24 0a ec be 34 10 a9 be bb e4 23 3f 0e a5 e1 3e
       -0.46101487 -0.33020175 0.6402089 0.4407124
000010 e0 eb 2b bd 78 83 06 3f 83 0a 20 3f 25 b6 20 3f
       -0.041972995 0.52544355 0.6251604 0.6277793
000020 42 5e 5e 3e 3a 6e 5d 3f 3a e9 82 3c a9 4a c4 be
       0.21715644 0.8649632 0.015980352 -0.3833821
000030 2c 76 2e bf 5a c2 a5 3e 40 50 51 bf 3a 99 01 bf
       -0.68149066 0.3237484 -0.81763077 -0.5062443
000040 07 6e 72 3f 12 54 63 bf 5f 71 04 3e 57 b9 23 3f
       0.9469914 -0.88800156 0.12933873 0.6395468
000050 61 5e 17 3f c5 ab 1e bf 05 e2 1f 3f 7a ff 32 3f
       0.59128386 -0.6198085 0.62454253 0.69921076
000060 f0 01 1e be 9e 5f 9d be 3e b7 13 3f ca 5a 24 3f
       -0.15430427 -0.30737013 0.5770148 0.64201033
000070 f6 a8 5d bf 5c db f3 be 48 18 65 bf 7b f4 5f 3f
       -0.8658594 -0.47628295 -0.89490175 0.8748242
000080 34 11 bf 3e b5 c1 8b bc 88 3e 0a be 02 b3 26 3f
       0.37317812 -0.01706014 -0.13500416 0.65116894
000090 84 54 32 bf 94 33 b9 3e ff 1c 5c 3f 5c 3b 2c bf
       -0.6966021 0.36172163 0.85981745 -0.67278075
0000a0 16 95 7c bf c2 55 41 bf b1 be 5b 3f e8 c2 72 be
       -0.9866499 -0.7552148 0.85837847 -0.23707163
0000b0 e8 30 8a be 74 66 6b bf 00 19 ce 3c 40 a8 e1 be
       -0.26990438 -0.91953206 0.025158405 -0.44073677
0000c0 db f7 68 3e 1a 9e 6d 3c 86 27 50 bf 68 d3 86 be
       0.227508 0.014503026 -0.8131031 -0.26333165
0000d0 43 fe 45 3f 62 be 37 bf 84 d4 f8 3e 9e 44 48 bf
       0.773411 -0.71774876 0.48599637 -0.782297
0000e0 c0 32 33 3f af 35 05 bf 14 5e f0 be 89 b1 4f 3f
       0.69999313 -0.5203504 -0.46946776 0.8113027
0000f0 22 c8 1a 3f 52 dd 03 bf 2c 38 91 3e 2f eb 27 3f
       0.6046163 -0.51509583 0.28363168 0.65593237

scalar_net.0.bias f4 [64]
000000 b6 d5 15 bf bc bc 9f be cd 76 c0 be 77 b0 04 3f
       -0.5852922 -0.3119868 -0.37590638 0.51831764
000010 8a 6f 24 bf da 2c 7e be f4 1d 33 3e 3d 8c 08 3f
       -0.64232695 -0.24821797 0.17491895 0.53338987
000020 b9 df 00 bd 09 63 b6 be 1d 91 a9 3e d0 5a 38 3f
       -0.03146336 -0.35622433 0.33118525 0.7201357
000030 3c 54 a3 3f 9d 1c e8 3e 0a 77 48 3f 00 69 98 bc
       1.2760081 0.4533433 0.7830664 -0.018604755
000040 ca fd 8f bf 44 71 28 3f 2d 44 ea 3e 72 f7 42 bf
       -1.1249325 0.6579783 0.4575514 -0.7615882
000050 c7 34 46 3f 4f 1d 95 3f d0 5c ee be 60 3f 1d bf
       0.7742428 1.1649569 -0.46555185 -0.6142483
000060 87 b8 28 3f 2c 29 71 3f b2 42 2f bf 9d 73 c3 be
       0.65906566 0.9420345 -0.68461144 -0.38174143
000070 ba a2 69 bf 0c aa ff be 00 7e ff 3d d3 02 d8 be
       -0.91263926 -0.49934423 0.124752045 -0.42189655
000080 81 26 63 3f fa 6a 59 3f b0 38 1b bf 0f c0 9e bf
       0.8873063 0.8492886 -0.60633373 -1.2402362
000090 c0 a6 03 3f 2a 31 f0 3e ce a7 4e be 28 83 04 be
       0.51426315 0.4691251 -0.201812 -0.12940657
0000a0 62 5a 67 3f 6c 74 fc be 39 13 dc be f2 45 05 bf
       0.9037229 -0.49307573 -0.42983416 -0.52059853
0000b0 ac 27 b7 be 40 c7 6c 3d de 8c 13 bf dc 7e c5 3e
       -0.35772455 0.057807207 -0.5763682 0.3857335
0000c0 2b 2e 76 3f cb 47 b0 3e d0 b6 82 3d b8 9a 89 be
       0.96164197 0.34429774 0.06382525 -0.26875854
0000d0 13 da 21 bf 73 28 ad 3f 19 22 8d 3d b0 e5 a6 be
       -0.6322338 1.3527969 0.06891269 -0.32597113
0000e0 11 b4 54 bf 3e 4c 79 3f 10 37 bd be 59 7c 2f 3f
       -0.8308726 0.9738196 -0.36956072 0.68549114
0000f0 97 4b 1b 3f 50 db c2 3e 1a f5 70 bf 00 9a c3 bd
       0.60662216 0.38057947 -0.94123995 -0.095508575

scalar_net.2.weight f4 [1, 64]
000000 e4 fd 09 3d 74 fc 32 bd 96 7b 13 be 4c 2c 34 3e
       0.033689395 -0.04369779 -0.14402613 0.17595023
000010 88 a4 cd 3c 2e 4a e5 bb 07 df 94 3d 0b 55 4c 3e
       0.025102869 -0.0069973683 0.072691016 0.19954316
000020 ec 3f c1 bc 76 dd 43 be 45 ed 8c 3d 57 4f 51 3e
       -0.02359005 -0.1912745 0.06881193 0.20440422
000030 24 b0 19 3f 99 bb 46 3e 48 23 bc 3d 0e c4 ae 3d
       0.60034394 0.194075 0.09186417 0.08533488
000040 e3 2f 84 be 78 9c 9b bd 23 c8 69 3e 41 09 4e be
       -0.25817785 -0.075982034 0.22830252 -0.20120718
000050 0c 89 6e 3e 79 3f d3 3e fa d8 96 bd 7a 8f 65 be
       0.23294467 0.41259363 -0.07365604 -0.22418013
000060 9c 84 91 3e 59 95 80 3e c2 2a b8 be e0 f0 55 be
       0.28421485 0.25113943 -0.35970122 -0.20892668
000070 c6 9a 88 3d 10 0c cd 3c 7c c5 a5 bd de 18 60 be
       0.06670146 0.025030166 -0.08094308 -0.21884486
000080 ef 7f 7f 3e 9f 67 5a 3e 18 bf ed 3d 84 83 b3 3e
       0.24951147 0.21328591 0.11608714 0.35061276
000090 18 b4 66 3d 9c aa 78 3d c5 86 8c bd f8 ea f4 3d
       0.056324095 0.06070958 -0.06861643 0.11958879
0000a0 2c 14 6e bd f0 8a 8d bd f0 56 3b be 00 2c 87 b9
       -0.058124706 -0.06911266 -0.18294883 -0.0002578199
0000b0 88 87 51 bd c6 c2 a7 3d 20 90 0f 3d 84 95 dd 3d
       -0.051154643 0.08191447 0.035049558 0.108195335
0000c0 be ee c4 3d df 3e 60 3e c8 d6 4f bd e8 29 e4 3c
       0.09615849 0.21898983 -0.05074194 0.027852014
0000d0 21 9a 00 be d2 c0 f4 3e dd 2e a7 bd 80 31 07 3b
       -0.12558796 0.4780336 -0.08163235 0.002062887
0000e0 fc aa 0d be 42 87 18 3f 18 86 4e bd 0b 71 bf 3c
       -0.13834757 0.5958139 -0.05042085 0.023369333
0000f0 32 73 3b 3e 52 7f 9e 3d c0 28 53 3c 21 4c 29 be
       0.18305662 0.07739128 0.0128881335 -0.16532947
