week4/models/lj_net_5000_50.pt (torch, 3080 bytes, 3 tensors)

scalar_net.0.weight f4 [64, 1]
0	0xbf774b9c	-0.96599746
1	0x3f8dffd4	1.1093698
2	0xbf3a2a18	-0.7272048
3	0x3f85fda3	1.0468029
4	0x3f12edbd	0.5739401
5	0x3e30f48a	0.17280784
6	0x3eeca459	0.46219137
7	0x3db54420	0.088508844
8	0x3f05a488	0.5220418
9	0xbf40de61	-0.75339323
10	0x3f559a64	0.83438706
11	0xbf17d45c	-0.5930841
12	0xbf59293d	-0.8482855
13	0xbf3550ee	-0.70826614
14	0x3e2bbdb6	0.16771588
15	0xbf781c82	-0.969185
16	0xbf204ff6	-0.6262201
17	0x3f1f686b	0.62268704
18	0xbf476a82	-0.77896893
19	0xbf7498c8	-0.95545626
20	0xbf830276	-1.0235126
21	0xbf683164	-0.90700364
22	0xbf516d36	-0.8180727
23	0xbf6020fc	-0.8755033
24	0x3df12eb0	0.11776483
25	0x3ec95a78	0.39326835
26	0x3f419590	0.7561884
27	0xbf0f73bc	-0.5603597
28	0x3d3b06da	0.04566083
29	0xbf6d02a2	-0.9258214
30	0x3efa31c3	0.4886609
31	0x3f257e77	0.64646095
32	0x3f800002	1.0000002
33	0x3f50d6ce	0.81577766
34	0x3f4c68b7	0.7984728
35	0xbf7813e4	-0.9690535
36	0x3f3a88ef	0.72865194
37	0x3f69e4fd	0.91365033
38	0xbcdccf13	-0.02695421
39	0x3f12bad3	0.5731632
40	0xbeaa25a0	-0.3323183
41	0x3f471822	0.777712
42	0xbecb8a58	-0.39753985
43	0x3ea69fd2	0.32543808
44	0x3f7c3c6f	0.98529714
45	0xbedbe02c	-0.42944467
46	0x3f36c15e	0.71388805
47	0x3d81dc30	0.063408256
48	0x3f1b1761	0.6058255
49	0x3e1c34c0	0.15254498
50	0xbe414c38	-0.18876731
51	0x3ec3975e	0.38201421
52	0x3eae868e	0.34087032
53	0xbef818eb	-0.4845651
54	0x3d7e832b	0.06213681
55	0x3f336456	0.70074975
56	0x3f119905	0.56874114
57	0x3f7d448e	0.9893273
58	0xbf830af7	-1.0237721
59	0x3f2d5b10	0.67717075
60	0xbec28095	-0.37988725
61	0xbf6c73b8	-0.9236407
62	0x3f154404	0.5830691
63	0x3cfba4c4	0.030718215

scalar_net.0.bias f4 [64]
0	0xbe915994	-0.28388655
1	0xbf5a08b0	-0.85169506
2	0x3edb3308	0.4281237
3	0x3dda14a1	0.10648466
4	0x3e4f9123	0.20270209
5	0x3efb790f	0.49115798
6	0xbf1ade2b	-0.6049525
7	0xbf511b34	-0.81682134
8	0x3f386633	0.72030944
9	0x3f5badc3	0.85812014
10	0xbec9bd21	-0.39402106
11	0x3f28a2fe	0.65873706
12	0x3fb1d406	1.389283
13	0x3f1adbcc	0.60491633
14	0x3f835f20	1.0263405
15	0xbf50b236	-0.8152193
16	0x3e1acac8	0.15116417
17	0xbf5077d7	-0.8143286
18	0x3fd9a41c	1.7003207
19	0x3cdfdc40	0.027326703
20	0x3fdc98a7	1.7234086
21	0x3fbe7f45	1.488259
22	0x3e4bdb68	0.19907916
23	0x3f0b1626	0.5433067
24	0xbee13b8c	-0.43990743
25	0xbf03cd5f	-0.51485246
26	0xbf41cc8e	-0.7570275
27	0x3ee4a17c	0.44654453
28	0x3f76b4fc	0.9636991
29	0x3fe55d06	1.7919014
30	0xbf23af5c	-0.6393945
31	0xbf2892ea	-0.65849173
32	0xbe99f3af	-0.30068728
33	0x3d875fb7	0.06610053
34	0x3ed1eed2	0.41002518
35	0x3d087180	0.033311367
36	0xbefcde31	-0.4938827
37	0x3f1a3f17	0.6025252
38	0x3f8fb748	1.1227808
39	0xbf3ff59c	-0.74984145
40	0xbeafd808	-0.34344506
41	0x3f4b1813	0.7933361
42	0xbf77c74a	-0.96788466
43	0xbeda54b7	-0.42642757
44	0xbdfb1e6a	-0.122616604
45	0xbe9b5534	-0.30338442
46	0x3f8a0606	1.0783088
47	0xbf1457da	-0.5794655
48	0xbf4ad6c5	-0.7923396
49	0x3f6789c0	0.90444565
50	0xbf3b403c	-0.7314489
51	0x3f7b91de	0.9826945
52	0x3ecf7267	0.4051697
53	0x3f0c6795	0.54845554
54	0x3e85e585	0.26151672
55	0x3f072e06	0.528046
56	0xbefc5e47	-0.49290678
57	0xbe0a895f	-0.13528965
58	0x3fe8f6aa	1.8200276
59	0x3ec89dbb	0.3918284
60	0x3f92027a	1.1407006
61	0x3f2b8d56	0.67012537
62	0xbf1e382a	-0.6180445
63	0x3f745818	0.9544692

scalar_net.2.weight f4 [1, 64]
0	0xbceca240	-0.02888596
1	0x3e5bd383	0.21467404
2	0x3d200764	0.03906955
3	0x3e03ef71	0.12884308
4	0x3e07659c	0.13222355
5	0xbd741986	-0.059594654
6	0xbf139b8b	-0.57659215
7	0xbd9fcd6a	-0.078028515
8	0x3d15d8d2	0.03658373
9	0xbdc82716	-0.0977308
10	0x3e3d301b	0.18475382
11	0x3d51d088	0.05122426
12	0x3f8ca480	1.0987701
13	0xbda96a10	-0.08272183
14	0xbd9f3ccc	-0.07775268
15	0xbd030548	-0.03198746
16	0xbccda9b0	-0.025105327
17	0xbf4aee5c	-0.7926996
18	0x3f43ff92	0.76561844
19	0xbd8f2fc6	-0.06991534
20	0x3f87fccb	1.0624021
21	0x3f9ee0e9	1.2412387
22	0x3d7f15f4	0.062276796
23	0x3abbd300	0.0014329851
24	0x3de5e336	0.11224978
25	0xbf336b41	-0.7008553
26	0x3e92621e	0.28590482
27	0xbdf8d7a8	-0.12150508
28	0xbd8e1643	-0.0693784
29	0x3f6fd035	0.93677074
30	0xbf42dfdd	-0.7612284
31	0x3e3cbcb8	0.18431365
32	0x3e14f91d	0.14548154
33	0x3d81379e	0.06309436
34	0x3dc71871	0.09721459
35	0xbb2d8800	-0.0026478767
36	0x3e5fe8da	0.2186617
37	0xbd91ed17	-0.071252994
38	0xbe09d51d	-0.13460203
39	0xbef7b9ec	-0.48384035
40	0xbc3e4540	-0.01161319
41	0xbd85ba8c	-0.065297216
42	0xbdf52510	-0.1196996
43	0xbf11af46	-0.5690807
44	0x3e39478e	0.18093702
45	0x3d4514a4	0.048115388
46	0xbd98e711	-0.074659474
47	0xba0d1500	-0.00053818524
48	0xbf2fc94c	-0.6866653
49	0xbc68fc10	-0.014220253
50	0x3c621a40	0.013800204
51	0xbdd8d07e	-0.10586642
52	0xba9d5439	-0.001200325
53	0x3b0ffafd	0.002196967
54	0xbdc29823	-0.09501674
55	0x3d6aeaf8	0.05735299
56	0x3e838918	0.25690532
57	0x3e27691b	0.16348688
58	0x3f8a1fac	1.0790915
59	0x3df5ffa6	0.12011652
60	0xbefbe6e1	-0.49199584
61	0xbccff950	-0.025387436
62	0x3e91a39e	0.28445143
63	0xbe3329fa	-0.17496482
