week4/models/lj_net_1000_50.pt (torch, 3080 bytes, 3 tensors)

scalar_net.0.weight f4 [64, 1]
000000 71 ad 04 3f 34 c4 66 bf cd 7d 75 3f 78 07 4f bf
       0.5182715 -0.9014313 0.9589508 -0.8087077
000010 f5 7c 49 3e 20 de 37 bd 1a e4 33 bf b6 45 64 bf
       0.19676574 -0.04488957 -0.7026993 -0.8916887
000020 18 71 60 be 38 f0 5c bf d9 6c 34 3f 44 ff 67 3e
       -0.21918142 -0.86304045 0.7047859 0.2265597
000030 cc f2 3e 3e a8 6e 03 bf de dd d9 3e 78 21 39 be
       0.18647307 -0.51340723 0.42552084 -0.18079174
000040 d7 a1 45 3f a4 48 13 3f c0 b8 a4 be 92 86 65 bf
       0.77200073 0.57532716 -0.32172203 -0.89658463
000050 0a d6 4b 3f 9e 70 00 bf 88 20 89 3e 5b e4 62 3f
       0.7962347 -0.5017184 0.26782632 0.8862969
000060 35 5e 06 3f e0 59 89 be 4b 6a 44 3f 1e 99 33 bf
       0.524875 -0.26826382 0.7672469 -0.70155513
000070 a8 09 47 bf 50 54 f0 bd 03 c3 5f 3f 66 11 43 bf
       -0.7774911 -0.11734831 0.8740694 -0.7619842
000080 b4 06 76 3f 1e b5 2c bf eb d8 c1 3e 54 d7 6f bf
       0.9610398 -0.6746386 0.37860808 -0.9368794
000090 ee ad cf 3e 89 ad d3 3e 04 8f 53 bf 14 74 d1 be
       0.40562385 0.41343334 -0.826401 -0.40908873
0000a0 18 89 2b bf e4 29 ff be 85 40 e7 3e 00 2b 6e 3f
       -0.67006063 -0.49836648 0.45166412 0.9303436
0000b0 1c 4f 0d 3f cf eb d3 3e 2d 81 67 3f a9 c7 35 3f
       0.55198836 0.41390845 0.9043148 0.7100778
0000c0 ae b0 58 3f cd 23 20 3f 3c ef 17 bf 70 1f 40 3e
       0.8464459 0.6255463 -0.5934942 0.18761992
0000d0 60 c4 84 be 24 3c 39 be 79 37 30 3f 4e d7 0a bf
       -0.25931072 -0.18089348 0.68834645 -0.5423478
0000e0 4c 05 29 3f dc e8 9b be fe ba 83 be 81 03 2c 3f
       0.6602371 -0.30451095 -0.257286 0.67192847
0000f0 5c 98 10 bf b0 50 4a be 98 f9 06 bf 60 d2 1f be
       -0.5648248 -0.19757342 -0.527246 -0.15607595

scalar_net.0.bias f4 [64]
000000 df c2 a9 bf be 25 79 bf e0 3f c2 be 58 48 02 3f
       -1.3262595 -0.97323215 -0.37939358 0.5089164
000010 88 ab b4 bd 20 88 f0 be e8 88 79 be 18 3e b3 3e
       -0.088217795 -0.46978855 -0.24368632 0.3500831
000020 80 43 c4 3e 40 3d 2a bd 3a b0 61 3f 6e ba 57 3f
       0.38332748 -0.04156232 0.88159525 0.84268844
000030 41 c1 4f 3f e2 ca 1e 3f ba 89 00 3f 10 c6 b4 be
       0.8115426 0.62028325 0.50210154 -0.3530736
000040 58 d4 50 3f 2b 41 11 3d 54 c6 39 bf d0 48 dd be
       0.8157401 0.03546254 -0.7256825 -0.43219614
000050 a4 54 6a bf ee 10 05 bf a4 5d 4c 3f 78 c3 8a 3d
       -0.915354 -0.5197896 0.79830384 0.06775564
000060 9d 40 3a 3e 10 4f 17 3f a4 27 9a 3e 7c 3a bd be
       0.1818871 0.59105015 0.30108368 -0.36958683
000070 f2 63 2e 3f ce 21 45 bf 40 36 44 3f 50 86 0d 3e
       0.68121254 -0.77004707 0.7664528 0.13820767
000080 d7 d9 df be 3a f5 1f 3f d5 0b 4c 3f 32 6f 4a bf
       -0.43720886 0.6248356 0.79705554 -0.7907592
000090 d2 1a b3 bd 52 bc b1 bd e0 3a 53 bf 98 8d 64 3f
       -0.0874535 -0.086784974 -0.8251171 0.89278555
0000a0 00 70 14 bf 88 02 3d 3f 03 b2 4e 3f b4 b0 1d 3f
       -0.579834 0.7383199 0.80740374 0.6159775
0000b0 e9 9d 34 3f 4e d1 47 bf 27 70 30 bf 57 44 ac 3e
       0.7055345 -0.7805375 -0.6892113 0.3364589
0000c0 e2 9a 5e bf b8 e9 44 3f 94 7e 2f bf c2 d5 13 bf
       -0.8695508 0.76919127 -0.6855252 -0.57748044
0000d0 c4 db bd 3e 80 f9 ec 3e af 28 98 be 58 64 52 3f
       0.3708173 0.46284103 -0.2971854 0.8218436
0000e0 44 14 06 3f 0c 56 9a 3e 03 04 87 3f 5a e3 2f bf
       0.5237467 0.30143774 1.0548099 -0.68706286
0000f0 ba f8 71 3f f8 4f 26 be d8 e7 0f 3e c4 09 0d bf
       0.9452015 -0.16241443 0.14053285 -0.55093026

scalar_net.2.weight f4 [1, 64]
000000 44 0e 54 bf 6a c1 8d 3d 61 01 66 3d 3e 5c e6 bd
       -0.8283427 0.069216564 0.05615366 -0.112480626
000010 17 2b ba bc 54 cb 51 bd 98 84 a7 bd 2c 3a cd bd
       -0.022725625 -0.0512193 -0.08179587 -0.10020861
000020 fc 61 07 bd f0 8a 36 3c f4 95 59 3d 92 b4 59 bd
       -0.03305243 0.011141524 0.053121522 -0.05315072
000030 dd fe a3 3d b0 79 ba 3c 73 e2 d9 3c 84 42 c9 3d
       0.08007596 0.022763103 0.026597237 0.0982714
000040 54 bf 6f bd e0 dc 9a bd 60 34 e9 bc 80 65 f0 ba
       -0.058532074 -0.0756166 -0.028467357 -0.0018340796
000050 76 70 c4 bd d8 a3 9d 3d 1e 67 71 bd f0 f6 0a 3d
       -0.09591763 0.07697266 -0.05893623 0.033926904
000060 52 a8 06 3e 72 7a eb bd e0 8c ce bd ea 14 c0 bd
       0.13150147 -0.11497964 -0.100854635 -0.09378989
000070 9c e8 76 3d e0 99 8a bd 04 10 05 3d 8a cb cc bd
       0.060280427 -0.067676306 0.032485977 -0.099997595
000080 79 37 b3 bd c0 68 51 bc 0a 98 a1 bc 2c 4f 00 bd
       -0.08750815 -0.012781322 -0.019725818 -0.031325504
000090 23 70 cb 3d 24 fe cd 3d a6 95 92 3d a8 ed d7 bd
       0.09933498 0.10058239 0.071574494 -0.10543376
0000a0 20 a2 7a bc 90 69 2e bd 3d d4 6f 3d d0 27 00 3e
       -0.015297443 -0.04258114 0.058552016 0.12515187
0000b0 15 96 be bd 73 0e 13 be 22 b2 0a 3d a0 a2 8e bd
       -0.093059696 -0.1436098 0.033861287 -0.06964612
0000c0 1f f0 8c bd 62 0b 68 3d 40 2b 11 3b d4 c8 bf bd
       -0.06881737 0.05665148 0.0022151023 -0.09364477
0000d0 b4 31 05 3d d5 aa 98 bd 98 a7 92 bd e0 7e 92 3c
       0.032518104 -0.074544586 -0.07160872 0.017882764
0000e0 f6 93 e1 3d 50 dd 8c 3d ca fc 0f 3e db 7a 32 3d
       0.110145494 0.068781495 0.14061275 0.043574195
0000f0 e4 90 1b 3d d8 bb 98 bd 40 6c c1 bc 38 c4 62 3d
       0.037979975 -0.07457703 -0.023611188 0.05536291
