week4/models/lj_net_5000_20.pt (torch, 3080 bytes, 3 tensors)

scalar_net.0.weight f4 [64, 1]
-0.4415239 1.0330079 0.8038863 -0.18262887 0.95179576 1.0071814 -0.5591364 0.6822727
-2.0706038 -0.2948953 -0.35957694 0.78381795 0.23348704 0.25553364 0.5247515 0.34112835
-0.039739843 0.7096382 0.39370263 0.7133887 -0.16311288 -0.9030694 -2.5355358 0.57481205
-0.6294155 0.38742125 -0.8531487 -0.96526194 0.61643773 0.8008914 0.03849034 -0.6222447
-0.8979863 -0.13776605 -0.8154298 0.897892 -0.9256054 -0.6299499 0.008255369 -0.06869513
-0.13959324 -0.20283318 -0.7583809 -0.6034837 0.8770715 -0.8564832 0.055189155 -0.8057847
0.48930097 -0.040205 -0.46813107 -0.91620183 -0.95100176 -0.16517118 0.6413757 -0.68512595
-2.4709573 -0.1996851 -0.0387851 -0.40530884 0.8395329 -0.114937305 0.7200328 0.81917244
00000000: 6c0f e2be 9a39 843f 7ecb 4d3f 1003 3bbe
00000010: e3a8 733f 52eb 803f 9023 0fbf 6ca9 2e3f
00000020: c684 04c0 84fc 96be 781a b8be 4ba8 483f
00000030: 3a17 6f3e 4ed5 823e 1d56 063f 60a8 ae3e
00000040: 3fc6 22bd d9aa 353f 6493 c93e a4a0 363f
00000050: 1007 27be 8e2f 67bf 3846 22c0 e226 133f
00000060: 6021 21bf 145c c63e f467 5abf 681b 77bf
00000070: ddce 1d3f 3807 4d3f 0ca8 1d3d 6e4b 1fbf
00000080: 6ee2 65bf 8b12 0dbe 02c0 50bf 40dc 653f
00000090: 7af4 6cbf 6644 21bf 8741 073c 08b0 8cbd
000000a0: 88f1 0ebe 80b3 4fbe 4025 42bf e87d 1abf
000000b0: c287 603f 7c42 5bbf 060e 623d e847 4ebf
000000c0: a885 fa3e 00ae 24bd e0ae efbe 348c 6abf
000000d0: da74 73bf a222 29be 3331 243f 6a64 2fbf
000000e0: 2a24 1ec0 407a 4cbe 20dd 1ebd a484 cfbe
000000f0: a1eb 563f 4064 ebbd 1254 383f 49b5 513f

scalar_net.0.bias f4 [64]
0.4306358 0.59281725 0.40775618 -0.8050437 0.76401967 0.37731573 0.53476167 0.018864209
3.2048063 -0.22106946 -0.82709897 0.50520355 0.4263819 0.58526206 -0.6809967 0.80761915
0.85609883 -0.9567839 0.5652722 0.38659745 -0.21177185 -0.8834624 4.029934 -0.5699917
0.68044376 -0.4751928 -0.3970132 -0.64307857 -0.65655184 -1.4136472 0.055248577 0.13832283
0.66735053 0.82734835 -0.6270819 1.0001682 0.18569386 0.38139534 0.5919586 0.71772623
-0.5166831 0.112697124 0.1519885 -0.073528886 -0.36935836 0.38442826 0.5793947 -0.17201781
-0.40631863 -0.75060046 0.016556501 0.46787095 -0.48176217 0.9917414 -1.1320139 -0.80659306
4.181908 -0.37983215 -0.6210437 -0.66416335 -0.26886877 -0.7290667 -0.2225202 -1.0225515
00000000: 4c7c dc3e dfc2 173f 6bc5 d03e 5817 4ebf
00000010: cb96 433f 872f c13e 24e6 083f 1d89 9a3c
00000020: 8c1b 4d40 0860 62be c2bc 53bf 0555 013f
00000030: ba4e da3e bcd3 153f cd55 2ebf 21c0 4e3f
00000040: 4b29 5b3f caef 74bf aeb5 103f 1af0 c53e
00000050: b8da 58be 982a 62bf 38f5 8040 faea 11bf
00000060: 9031 2e3f 784c f3be 5045 cbbe cca0 24bf
00000070: c813 28bf 64f2 b4bf 554c 623d 80a4 0d3e
00000080: 7cd7 2a3f 1acd 533f 7088 20bf 8305 803f
00000090: 8826 3e3e 4046 c33e 998a 173f e8bc 373f
000000a0: 5845 04bf c0cd e63d e0a2 1b3e 5096 96bd
000000b0: 8a1c bdbe c8d3 c43e 3653 143f 7025 30be
000000c0: ff08 d0be 5a27 40bf 80a1 873c c88c ef3e
000000d0: 88a9 f6be c4e2 7d3f d5e5 90bf e27c 4ebf
000000e0: 31d2 8540 5c79 c2be b8fc 1ebf 9c06 2abf
000000f0: 2ba9 89be 1ea4 3abf 56dc 63be f8e2 82bf

scalar_net.2.weight f4 [1, 64]
0.114682555 0.09990175 -0.034119815 -0.004689917 0.056104038 0.09747433 -0.067092 0.041295882
-12.189638 -0.09256391 0.024542183 0.10527735 0.08861284 -0.08016784 0.17205523 -0.082831755
-0.1226716 0.21738674 0.094318844 0.09920584 0.03224048 -0.119883984 -11.042206 0.01865791
0.116064265 0.064776585 -0.10953319 0.09462522 0.055394664 -0.6434643 0.038652647 -0.033808306
0.066785455 -0.33972904 0.087719366 -0.06020019 0.053139344 -0.06732789 -0.108888574 -0.17985766
-0.08573836 0.020785674 0.05249013 0.054229602 0.033676974 0.0003953576 0.047828835 -0.004735604
0.07120517 0.07770082 -0.09862468 -0.112164184 -0.07967138 -0.33225086 -0.8320536 0.050071403
-9.21466 0.09120947 0.056269467 -0.062313035 0.009215078 0.12034722 -0.044755496 0.106077455
00000000: b0de ea3d 4a99 cc3d 38c1 0bbd e0ad 99bb
00000010: 59cd 653d 9fa0 c73d 8867 89bd df25 293d
00000020: c208 43c1 2692 bdbd b00c c93c a79b d73d
00000030: a67a b53d 092f a4bd 3f2f 303e b2a3 a9bd
00000040: 3f3b fbbd a19a 5e3e 3d2a c13d 6e2c cb3d
00000050: 980e 043d bc85 f5bd e0ac 30c1 79d8 983c
00000060: 1ab3 ed3d 96a9 843d f052 e0bd deca c13d
00000070: 84e5 623d 14ba 24bf 3d52 1e3d 947a 0abd
00000080: d0c6 883d f7f0 adbe 36a6 b33d 7994 76bd
00000090: a4a8 593d 34e3 89bd f900 dfbd 9b2c 38be
000000a0: 9897 afbd b846 aa3c e4ff 563d dc1f 5e3d
000000b0: def0 093d 0048 cf39 2be8 433d 202d 9bbb
000000c0: 04d4 913d 9c21 9f3d bcfb c9bd 56b6 e5bd
000000d0: c02a a3bd c91c aabe 7701 55bf ac17 4d3d
000000e0: 3f6f 13c1 08cc ba3d d07a 663d f43b 7fbd
000000f0: d7fa 163c 9a78 f63d 8a51 37bd 233f d93d
