week4/models/lj_net_5000_30.pt (torch, 3080 bytes, 3 tensors)

scalar_net.0.weight f4 [64, 1]
0	0x3f5f00f3	0.87110823
1	0x3f4a9fe1	0.79150206
2	0xc02dc9aa	-2.7154336
3	0x3f6fa71f	0.9361438
4	0x3e9268f5	0.285957
5	0xbf497f04	-0.78709435
6	0x3f2b9a93	0.67032737
7	0xbdb45997	-0.088061504
8	0x3f321ee6	0.695784
9	0x3f01008c	0.5039146
10	0x3e96c371	0.29445985
11	0x3eb736ed	0.35784093
12	0x3f007e20	0.5019245
13	0xbf7ddf10	-0.9916849
14	0xbef989ac	-0.48737848
15	0xc02a9839	-2.665541
16	0x3eda11b9	0.42591646
17	0xbf0bad62	-0.54561436
18	0xbe17ba0c	-0.14817065
19	0x3f412683	0.7544939
20	0xbed255a8	-0.41080976
21	0xbe2be068	-0.16784823
22	0xbf5f56a6	-0.8724159
23	0xbef86988	-0.48518014
24	0xbd74527e	-0.059648983
25	0xbf19caae	-0.6007489
26	0x3f46c3ce	0.77642524
27	0xbf4fac60	-0.811224
28	0x3f56fdaa	0.8398081
29	0xbe92cf38	-0.2867372
30	0x3f789173	0.9709694
31	0xbde317e0	-0.11088538
32	0x3f713167	0.94216007
33	0xbdd9077e	-0.10597132
34	0xbed9ae3c	-0.42515743
35	0x3f395787	0.7239918
36	0xc029a5fb	-2.6507556
37	0xbebd6708	-0.3699267
38	0xbf6fccf6	-0.9367212
39	0x3ee93eb5	0.45555654
40	0x3f333b15	0.7001203
41	0xbde2f1a0	-0.110812426
42	0x3ed9accc	0.42514646
43	0xbf3e3586	-0.7430042
44	0xbed3152c	-0.4122709
45	0xbcf41f57	-0.0298001
46	0x3f472955	0.7779744
47	0x3f3ab839	0.7293735
48	0x3f121811	0.5706797
49	0xbe324040	-0.17407322
50	0xbf6c0fba	-0.92211497
51	0xbf248e00	-0.64279175
52	0x3f6831c8	0.9070096
53	0xbed4f9e8	-0.41596913
54	0xbf052b9e	-0.5201968
55	0xbf2c2248	-0.6723981
56	0x3f47deea	0.78074515
57	0xbee3e01c	-0.4450692
58	0xbf24c290	-0.6435938
59	0x3f177546	0.5916332
60	0x3f22c0c6	0.635754
61	0x3e2c2e91	0.16814639
62	0xbf554bd2	-0.8331882
63	0x3ebba382	0.36648184

scalar_net.0.bias f4 [64]
0	0xbf6ce9db	-0.92544335
1	0x3ee8c3e3	0.4546195
2	0x408afe30	4.3435287
3	0xbf8303c8	-1.0235529
4	0x3f027bad	0.50969964
5	0x3f2a4c68	0.66522837
6	0xbfa232b3	-1.2671722
7	0x3f56ac1b	0.8385636
8	0xbef8cc09	-0.48593166
9	0x3ea88c81	0.32919696
10	0x3f07d159	0.53053814
11	0xbedca589	-0.43095043
12	0x3ee2f355	0.44326273
13	0xbf4a5aa4	-0.79044557
14	0xbe93ccf0	-0.28867292
15	0x40829869	4.0811048
16	0xbf18efd3	-0.5974094
17	0x3f292060	0.66065025
18	0x3e51f74f	0.20504497
19	0xbf0e1872	-0.5550605
20	0x3f0bb9a8	0.54580164
21	0xbf615c2c	-0.8803127
22	0xbf6ac7bc	-0.9171102
23	0x3eea5f10	0.45775652
24	0x3f3c616f	0.7358617
25	0x3f4e8e60	0.80685997
26	0x3efbca96	0.49177998
27	0x3f10fdcc	0.56637263
28	0xbed58c2a	-0.417085
29	0xbf0f78e6	-0.5604385
30	0x3dd72153	0.10504403
31	0xbe8e4148	-0.2778418
32	0x3ec5eb96	0.386563
33	0x3f22aee8	0.63548136
34	0xbf1051fa	-0.56375086
35	0x3f15ea2b	0.58560437
36	0x4091cd98	4.556347
37	0xbf6e2868	-0.93030405
38	0xbf0546be	-0.5206107
39	0xbf23970c	-0.63902354
40	0xbf5ce8aa	-0.8629252
41	0xbf5f0d2a	-0.8712946
42	0xbf829397	-1.0201291
43	0x3d97cc40	0.074120045
44	0xbf68cfda	-0.90942156
45	0x3e8c46ce	0.2739777
46	0xbfbc4199	-1.4707519
47	0xbf005b08	-0.501389
48	0xbf21c5c1	-0.63192374
49	0xbf2af306	-0.66777074
50	0x3e8a75e8	0.2704308
51	0x3f652478	0.8950877
52	0x3f1d6d89	0.6149526
53	0xbe12caa0	-0.14335108
54	0xbf0a742a	-0.540835
55	0x3e7979c8	0.24362862
56	0xbfbcee41	-1.4760209
57	0x3e80151c	0.25016105
58	0xbee745f4	-0.45170557
59	0x3f0d0a3c	0.5509374
60	0x3eecfd3f	0.4628696
61	0x3eb20517	0.34769508
62	0xbe9e056c	-0.30863512
63	0xbf8bb884	-1.0915685

scalar_net.2.weight f4 [1, 64]
0	0x3dcc92ca	0.09988935
1	0xbd36760d	-0.044546176
2	0xc14a84cf	-12.657424
3	0x3d99a1fc	0.07501599
4	0x3d8e964d	0.06962261
5	0x3c2b4be0	0.010455102
6	0xbf6d415e	-0.9267787
7	0xbe2c4006	-0.16821298
8	0x3e1c6a23	0.15274863
9	0x3cfad836	0.030620676
10	0xbb20746e	-0.002448346
11	0x3e17394d	0.14767952
12	0x3e00165d	0.12508531
13	0x3c7c15d0	0.01538606
14	0x3d21365c	0.03935848
15	0xc183b914	-16.46537
16	0x3e479833	0.19491653
17	0x3b39c440	0.0028345734
18	0x3d43b1a5	0.047776837
19	0x3e19c0fd	0.15015025
20	0x3d9f3d74	0.07775393
21	0x3c802de8	0.01564689
22	0xbdd9cbec	-0.10634598
23	0x3dc6f22e	0.09714161
24	0xbd34dbee	-0.044155054
25	0xbcc4f600	-0.024043083
26	0x3e0c3fad	0.13696165
27	0x3d8829f6	0.066486284
28	0x3d35f951	0.04442722
29	0x3daee69e	0.085400805
30	0x3d34c4f8	0.044133157
31	0x3dc01270	0.09378517
32	0x3d2b3246	0.04179599
33	0xbf1ca7b0	-0.6119337
34	0x3d2a4944	0.041573778
35	0xbd360d34	-0.044446185
36	0xc0ccdf52	-6.402261
37	0xbce75498	-0.02823858
38	0x3df7c9a2	0.12099005
39	0x3de7b156	0.11313121
40	0x3d07e057	0.03317293
41	0x3de3a006	0.111145064
42	0x3fcde510	1.6085529
43	0xbd8393aa	-0.06424649
44	0x3ca1e920	0.019764483
45	0xbc0eb334	-0.008709718
46	0xbf874777	-1.0568684
47	0x3e18483b	0.14871304
48	0x3ba65f83	0.005077304
49	0xb9bea200	-0.00036360323
50	0xbda58cfe	-0.08083533
51	0x3cdfd0fb	0.02732133
52	0x3d119fbc	0.035552725
53	0xbd8c048c	-0.06836805
54	0x3dbcb4c8	0.09214169
55	0x3c5879e0	0.013212651
56	0xbf5df2ff	-0.8669891
57	0xbdb559d0	-0.08855021
58	0x3c933d28	0.017973498
59	0x3d7d7f93	0.061889242
60	0xbd8b1a60	-0.0679214
61	0xbb88bada	-0.004172665
62	0x3c042dc0	0.008067548
63	0x3f7caac9	0.986981
