week4/models/lj_net_15000_100.pt (torch, 3096 bytes, 3 tensors)

scalar_net.0.weight f4 [64, 1]
000000 20 fc 15 3e 45 b6 0a bf d0 07 c5 be 6a 8a 65 bf
       0.1464696 -0.5418437 -0.38482523 -0.8966433
000010 42 60 ea be 7b d3 9d 3e 94 2b 13 bf 80 7e 3e bc
       -0.45776564 0.3082541 -0.5748837 -0.01162684
000020 e0 60 2b bd 9e 61 14 c0 79 03 a1 bd b6 05 5c 3f
       -0.041840434 -2.318458 -0.078619905 0.85946214
000030 94 d6 0d bf d4 9b 0a bf 00 4f 0a bd b4 1d a4 3c
       -0.55405545 -0.54144025 -0.033766747 0.020033695
000040 73 bf 4f 3f ca 47 5d bf cc 7b 65 bd 64 e9 7c bf
       0.81151503 -0.86437666 -0.056026265 -0.98793626
000050 3b 25 16 bf 76 30 50 bf d0 36 28 3e a0 c4 11 bd
       -0.5865056 -0.81323946 0.1642716 -0.035587907
000060 e9 7d 8a 3f e8 33 7e bf 6e 99 6b 3e e9 b3 b1 bd
       1.0819675 -0.9929795 0.23007748 -0.08676893
000070 ff a9 e8 3e 8c 73 27 bf 07 26 4b 3f 98 3e fe be
       0.45442197 -0.65410686 0.793549 -0.4965713
000080 01 a2 86 3f ed e2 24 3f 00 e8 ea 3a 1d e2 5b 3f
       1.051819 0.6440876 0.0017921925 0.85891896
000090 27 19 68 bd 2c 80 86 3f 81 5f 35 c0 40 5c 52 3d
       -0.056664612 1.0507865 -2.833954 0.051357508
0000a0 04 20 35 3f 3b ff 27 3f a0 c9 cb 3d 63 a3 1f 3f
       0.70751977 0.65623826 0.09950566 0.62358683
0000b0 68 a6 7d be b2 29 39 bf fe 01 71 3f 5c 19 35 bf
       -0.2477051 -0.72329247 0.94143665 -0.7074182
0000c0 c0 f4 50 3f 81 43 8f 3f 3b ef 45 be 60 c2 a9 be
       0.8162346 1.1192476 -0.1932954 -0.3315611
0000d0 03 81 8f 3f ff 61 01 3f 70 df 7a be 1b 9e 9b 3e
       1.1211246 0.50540155 -0.24499297 0.30394062
0000e0 88 b1 1b 3f 51 fc 5c be fa 2a 61 bf e2 50 2e bf
       0.60817766 -0.21580626 -0.879562 -0.6809217
0000f0 96 56 75 bf d8 77 ee be af 7b 2f be a8 3d 74 bf
       -0.95835245 -0.4657581 -0.17137025 -0.9540658

scalar_net.0.bias f4 [64]
000000 07 34 8e 3f c4 ed a3 3f 10 ab 4f 3e c4 77 4d bf
       1.1109627 1.2806935 0.20280099 -0.8026087
000010 00 eb a0 3f c7 e3 c3 be 40 21 5b bd f0 a8 99 be
       1.2571716 -0.38259718 -0.053498507 -0.30011702
000020 98 79 8d be f2 de 7a 40 f5 9c 57 3f 07 e8 88 bf
       -0.2763183 3.9198575 0.8422387 -1.0695809
000030 00 d5 2f bc 74 44 6c bf 70 2d 76 bf 27 27 96 3f
       -0.0107319355 -0.9229195 -0.9616308 1.1730698
000040 23 e4 7a bd 36 e1 22 3f 73 8e ab 3e 8a 0d 3e bf
       -0.061252724 0.63624895 0.33507118 -0.7423941
000050 4c 51 54 3f c0 05 47 bd 6d e1 0e bf 50 4b 6e bf
       0.8293655 -0.048589468 -0.5581272 -0.9308367
000060 89 19 21 bf 60 3d 2b bd d3 d3 99 be 27 0d 05 3f
       -0.6292959 -0.04180658 -0.30044422 0.51973194
000070 ba 73 dc bd ac df 6b 3f 88 5d 4d bf cc d7 bb 3e
       -0.107642606 0.9213817 -0.8022084 0.36688077
000080 a2 87 b9 3e 3b 81 97 3e 28 b1 fd be 9e e7 84 bf
       0.36236292 0.29590783 -0.49549222 -1.0383184
000090 2c 6f ad 3e 19 bd a2 bf e1 e3 8e 40 c4 d9 63 bf
       0.3387388 -1.2713958 4.4653172 -0.8900416
0000a0 82 6f f0 3d 03 dc 68 bf 8d e5 18 bf dc de 2d bf
       0.117400184 -0.9096071 -0.59725267 -0.6791818
0000b0 b8 aa 83 be cc 34 c8 3e cb 38 db bf 50 8f f6 3e
       -0.25716186 0.3910278 -1.7126707 0.48156214
0000c0 2e 61 91 bf 2e cb 05 c0 8b 98 9f 3f 10 4f 78 bf
       -1.1357782 -2.090526 1.2468427 -0.9699564
0000d0 1f 8d 4c be 9d 33 18 bf 88 9b 1a bf 1b 0e b4 3e
       -0.19975708 -0.59453756 -0.6039357 0.35167012
0000e0 5e 34 fe bc 9f a2 a5 3f 1c 7e 76 3f 60 9c 9c 3d
       -0.03103083 1.2940253 0.9628618 0.07647014
0000f0 44 0d 30 3f c0 d0 fb be fd 80 83 3f 60 4b 2b bf
       0.6877024 -0.491827 1.0273739 -0.6691189

scalar_net.2.weight f4 [1, 64]
000000 e1 56 97 bd 90 19 9a 3f bc 52 13 3d 9a 16 b9 3d
       -0.07389618 1.2039051 0.035967574 0.09037514
000010 e6 99 3b 3f d7 f7 b7 3e 80 fa ae ba 40 de c6 bc
       0.73281705 0.35931274 -0.0013349801 -0.024275899
000020 e4 ea 37 bd 99 aa 0d c1 9e 5d 4a be 93 6a a1 3e
       -0.044901744 -8.85415 -0.19762275 0.31526622
000030 9a b0 94 bd 22 cf d9 bd b8 da 3f bd 72 76 47 be
       -0.072602466 -0.106352106 -0.046839446 -0.19478777
000040 92 24 09 3e 1e 8a c1 bd f4 d0 87 be 40 9a 9f bd
       0.13392857 -0.09450172 -0.26526606 -0.07793093
000050 bd 3c 65 3d b0 7e 39 bd 5b 3b 37 3f 94 4d b2 bd
       0.055966128 -0.045286834 0.71574944 -0.08706203
000060 d5 40 98 3e 14 fe 91 bd c8 88 e7 3e 48 04 90 bf
       0.29736963 -0.0712854 0.45221543 -1.1251307
000070 8d c9 2e 3e 40 e3 04 bd ea 87 be 3e 1e 9b df bd
       0.17069073 -0.032443285 0.3721307 -0.10918258
000080 90 06 19 3e 29 39 59 3e e0 80 98 3b a1 40 ca 3e
       0.1494391 0.21213211 0.004654035 0.39502433
000090 a9 10 99 bd ca eb d9 3e 78 f7 86 c1 84 05 15 3d
       -0.07473881 0.42562705 -16.870834 0.036382213
0000a0 d8 15 7d 3d d1 93 99 3e b9 f1 93 bd 2c d5 52 3e
       0.06178841 0.29995587 -0.07223839 0.20589131
0000b0 b0 c7 c1 bc e2 ac db 3d 3e bb 0a c0 20 6f ee bc
       -0.023654789 0.10726334 -2.1676784 -0.029105723
0000c0 e0 2e a4 3e 54 c2 04 c0 c6 88 f8 be 84 87 73 3d
       0.32067013 -2.0743608 -0.4854185 0.05945541
0000d0 1b 85 62 3e ba 9e 58 3e 3e b6 f6 3d d5 83 08 3e
       0.22121088 0.211543 0.12046479 0.1333154
0000e0 73 5c 8d 3e bd 8a 9a bf ec 7d 8a bd bc 06 30 bd
       0.27609596 -1.207359 -0.06762299 -0.042975172
0000f0 bc f0 15 bd 4e bd ce bd af f8 97 bf 6a 03 c4 bd
       -0.036606535 -0.10094701 -1.1872767 -0.09570964
