week4/models/lj_net_6000_40.pt (torch, 3080 bytes, 3 tensors)

scalar_net.0.weight f4 [64, 1]
000000 95 21 54 c0 79 62 4f 3f 27 31 88 3e c0 21 a8 bd
       -3.3145497 0.8100963 0.266 -0.08209562
000010 14 ae 0c bf fc f6 15 bf c0 5c 39 bf 98 27 62 bf
       -0.5495312 -0.58579993 -0.7240715 -0.88341665
000020 6b be 42 3f 48 d0 f6 3e 6c 5d 2c 3f 74 1e c8 be
       0.76071805 0.4820578 0.6733005 -0.39085734
000030 43 24 ad 3e 62 22 3e c0 05 aa b6 bd 48 a7 7c be
       0.33816728 -2.9708486 -0.089191474 -0.24673188
000040 88 a9 42 be 00 ae 8d be 88 e0 55 bf 29 2b 14 3e
       -0.19009984 -0.27671814 -0.8354573 0.1446959
000050 00 b2 95 be 81 b1 64 3f 64 ab 59 3f c2 9a 43 bf
       -0.29237366 0.8933335 0.85027146 -0.76408017
000060 d3 1e f1 3e e4 e9 e8 be 68 17 11 3f c6 0f 02 bf
       0.4709383 -0.45490944 0.5667634 -0.5080532
000070 9c 71 59 bf 10 e8 3e bf 45 d6 da 3d 42 8c 3f bf
       -0.8493898 -0.7457285 0.106854 -0.7482339
000080 22 ab 7e bf 3a 4e 68 bf 47 b0 1d 3e 15 14 1d 3f
       -0.9947988 -0.90744364 0.15399276 0.6135877
000090 78 b4 f4 be 75 97 14 3f 6d d6 48 3f e4 17 02 3f
       -0.47793937 0.58043605 0.7845219 0.50817704
0000a0 ae 80 54 3f 1e f8 3e bf a0 72 52 be 9a 90 47 bf
       0.8300885 -0.74597347 -0.20551538 -0.7795502
0000b0 10 a9 31 bf 78 37 18 be fb c2 09 3f 4c 54 36 3f
       -0.69398594 -0.1486491 0.5381314 0.71222377
0000c0 f5 7b 0f 3f 4f be 29 c0 4f 57 8d 3f c8 25 47 be
       0.5604852 -2.6522405 1.104227 -0.19448006
0000d0 b8 96 b1 be 14 ef 9a be f2 a0 4f 3f 92 28 4c 3f
       -0.34685302 -0.30260527 0.8110496 0.79749405
0000e0 46 ac 4a 3f 12 d8 5d 3d 20 8d 6f bf dc a6 38 3e
       0.7916912 0.05416114 -0.93574715 0.18032402
0000f0 e2 e8 94 3e 6c 8e 75 bf 74 1e 86 be c0 a9 bd 3c
       0.29083925 -0.95920444 -0.2619511 0.023152232

scalar_net.0.bias f4 [64]
000000 38 26 a2 40 97 81 91 bf d3 d4 99 3e 76 fd 4c bf
       5.0671654 -1.1367673 0.30045184 -0.8007425
000010 e4 c7 3a 3f 7a 6a 36 bf 5a 59 39 3f 6c b0 04 bf
       0.7296126 -0.7125622 0.72401965 -0.518317
000020 b6 16 2d 3f 1e d0 ba 3d a4 98 ad 3e b4 f8 44 bf
       0.6761278 0.091217265 0.33905518 -0.7694199
000030 23 a2 63 3f c8 16 99 40 52 72 20 3f 0e 03 16 bf
       0.88919276 4.784031 0.6267444 -0.5859841
000040 44 fc 49 bf 00 e8 f2 bc f8 4c 07 3f d6 2f a3 3e
       -0.7890055 -0.029651642 0.5285182 0.31872433
000050 22 3d 76 bf 67 ce 06 be 6f 67 46 3f 2e e8 17 bf
       -0.9618703 -0.13164674 0.7750158 -0.59338653
000060 0a 97 10 3e 00 aa 72 bd c8 99 8c 3f 00 ae 90 3b
       0.14120117 -0.059244156 1.098443 0.0044152737
000070 20 74 41 bd 84 9a 1c bf 89 80 7f bd 6e 9a 66 bf
       -0.047229886 -0.6117327 -0.06237844 -0.9007939
000080 00 87 1e be 1a 52 6d 3f 23 ab 2c be f5 d2 cf bf
       -0.15481186 0.927034 -0.16862158 -1.6236254
000090 dc 0b 28 bf f8 50 1d 3e 7b 13 69 3d 1a 5b fd be
       -0.65643096 0.15362918 0.056903344 -0.49483567
0000a0 26 49 c6 bf fe cc 5b bf c8 18 37 be ce 8a 4d 3f
       -1.5491073 -0.8585967 -0.17880547 0.80289924
0000b0 60 3c 56 3e ac 2d 91 be 18 47 41 bf 49 d8 7f bf
       0.20921469 -0.28355157 -0.75499105 -0.999394
0000c0 b6 b5 ef bd 10 38 92 40 00 e5 03 c0 2a ad 42 bf
       -0.117045805 4.5693436 -2.060852 -0.7604548
0000d0 4e 95 1f bf 44 f1 d7 be b4 24 da be 69 7f be bf
       -0.62337196 -0.4217626 -0.42606127 -1.4882632
0000e0 4c 63 32 be c9 55 29 3e 50 0f 39 3f bd db ea bd
       -0.17420691 0.1653663 0.7228899 -0.11467693
0000f0 0b 11 10 3f 18 aa fc be a0 e0 5d be a0 65 b5 be
       0.56276006 -0.4934852 -0.21667719 -0.35429096

scalar_net.2.weight f4 [1, 64]
000000 f0 bc 98 c1 52 b4 bd 3e db f7 0a 3d e2 c0 fc bd
       -19.092255 0.37051636 0.03392778 -0.12341477
000010 7c 56 8b 3d 5e 4e aa bd 4c 9d 11 bd a2 94 e2 3d
       0.06803605 -0.083157286 -0.0355504 0.11063506
000020 f5 62 0d bd 8a 25 25 3d d7 a8 1e bd 40 44 6b 3d
       -0.0345182 0.040319003 -0.038735237 0.057438135
000030 ca 5a b8 bd a4 6b 29 c1 df bf dc be 04 e6 5a bd
       -0.09001692 -10.588779 -0.43115136 -0.053442016
000040 d0 78 f8 bc b2 a2 d3 bd 34 36 37 bd 74 37 30 3d
       -0.030331045 -0.10333766 -0.044729427 0.043021634
000050 8c cf 91 3d fa 2f 0e 3e 4f 58 79 bd 64 e9 e9 bd
       0.071196645 0.13885489 -0.060875233 -0.11421469
000060 33 ff eb 3d e8 dc ae 3d 85 6d 5a bd 70 60 20 3c
       0.11523285 0.08538228 -0.053327102 0.0097886175
000070 34 db 69 3d fa 0a db 3d bd 34 73 3d 54 7f 83 3d
       0.057093814 0.10695453 0.059376467 0.0642077
000080 b8 8b 88 bc e0 ab d0 3c 27 43 31 3e 2b 90 be 3f
       -0.016668186 0.025472581 0.17310773 1.4887747
000090 a8 ab ff 3d 10 04 0a 3e 8a 47 8c 3d 7b b3 2d 3e
       0.12483913 0.13478112 0.068495825 0.16962998
0000a0 c5 da 55 bf a0 f5 2d bd 54 1d 97 3d 88 4c 94 3d
       -0.8353694 -0.042470574 0.07378641 0.0724116
0000b0 00 19 ec 3b 0e ef 8b bd 67 b3 af 3e 76 19 b7 3e
       0.0072051287 -0.068327054 0.3431656 0.35761613
0000c0 67 d7 10 3e c9 f8 b0 c0 37 ca 62 bf 48 cf 10 3d
       0.1414467 -5.5303693 -0.88589805 0.03535393
0000d0 00 b4 12 3b 5a a8 81 bd 22 30 82 3e bf 28 67 bf
       0.002238512 -0.06330939 0.25427347 -0.9029655
0000e0 e9 f8 f8 3d b6 cc 31 bd 00 0e b4 3a 0d 2b 89 3c
       0.12156851 -0.04340812 0.0013737082 0.016744161
0000f0 c8 1b 27 bc 90 29 03 bd 32 81 df bd 10 e9 d7 bc
       -0.010199495 -0.03202206 -0.10913314 -0.02635625
