week4/models/lj_net_2001_20.pt (torch, 3080 bytes, 3 tensors)

scalar_net.0.weight f4 [64, 1]
0	0x3f5bcc3b	0.85858506
1	0xbca045c0	-0.01956451
2	0xbf45d4fa	-0.772781
3	0xbf4576c2	-0.77134335
4	0xbf0ebe43	-0.55759066
5	0x3ec67eb8	0.38768554
6	0xbec46500	-0.38358307
7	0x3f5c9350	0.8616228
8	0xbf12ab9d	-0.5729311
9	0xbf7dfe1e	-0.9921588
10	0x3a21bcba	0.0006169785
11	0xbe310140	-0.17285633
12	0x3f6283da	0.8848244
13	0xbed88f1c	-0.42296684
14	0x3d8759bf	0.066089146
15	0x3edb67b1	0.42852548
16	0xbeca1bd8	-0.39474368
17	0x3f22bb5d	0.63567144
18	0xbef570d4	-0.47937644
19	0xbf556bbc	-0.83367515
20	0x3f1dd8d0	0.61658955
21	0x3ed53e1f	0.41648957
22	0xbf1512e8	-0.58231974
23	0xbec32fd0	-0.38122416
24	0xbf637fd8	-0.8886695
25	0xbe4c4530	-0.19948268
26	0x3d8d8251	0.069096215
27	0x3e8f3fcc	0.2797836
28	0xbd1ae7ae	-0.037818603
29	0xbf44a73c	-0.7681768
30	0x3f43a439	0.7642246
31	0xbec5a784	-0.38604367
32	0x3e343b61	0.17600776
33	0xbf00c450	-0.5029955
34	0xbf42aa5e	-0.7604121
35	0xbecc35b4	-0.39884722
36	0x3ef58f1e	0.47960752
37	0xbf5ed7f4	-0.8704827
38	0x3de684dc	0.1125581
39	0xbdc2a380	-0.095038414
40	0x3e32409c	0.17407459
41	0x3ec215bf	0.37907216
42	0x3e74d3cd	0.2390892
43	0x3e7426e1	0.23842956
44	0xbc82d981	-0.015972855
45	0x3d64abe0	0.055827975
46	0xbf41b9dc	-0.75674224
47	0x3f7af0a8	0.9802346
48	0xbf501830	-0.8128691
49	0x3f30e93e	0.691059
50	0xbecedd38	-0.40403152
51	0xbe8ad79e	-0.27117628
52	0x3f41264e	0.75449073
53	0x3eeb2944	0.4592992
54	0x3e9471aa	0.2899297
55	0x3ecab620	0.39592075
56	0xbf173cce	-0.59077156
57	0xbebe81e0	-0.37208462
58	0xbe046bc0	-0.12931728
59	0x3f64ebb4	0.89422154
60	0x3c2f8bc6	0.010714477
61	0xbeba2eb8	-0.3636377
62	0x3f29f911	0.6639567
63	0x3e9e7250	0.3094659

scalar_net.0.bias f4 [64]
0	0xbed1310d	-0.40857735
1	0xbdd04930	-0.101702094
2	0xbf394940	-0.72377396
3	0x3c3f4100	0.011673212
4	0x3fb14453	1.3848976
5	0xbf4a4040	-0.7900429
6	0xbf4d1ac4	-0.80118966
7	0x3ec74ffc	0.3892821
8	0x3fbe7f2b	1.4882559
9	0xbd2cd700	-0.042197227
10	0x3f85072d	1.0392815
11	0xbf5a47ac	-0.8526561
12	0x3e4cbf38	0.19994819
13	0xbe970a48	-0.2950003
14	0x3ed05df0	0.4069667
15	0x3e82b779	0.25530604
16	0xbf12200c	-0.5708015
17	0xbf32ab8c	-0.6979301
18	0x3f507a76	0.8143686
19	0x3ef58bc0	0.47958183
20	0x3eaa7cd7	0.3329837
21	0xbf04aadf	-0.5182323
22	0xbea078ec	-0.31342256
23	0xbf4c05e6	-0.796965
24	0xbf126d66	-0.5719818
25	0xbe6dfa10	-0.23239923
26	0x3f0fccb7	0.56171745
27	0x3e2a0aa7	0.16605626
28	0x3f0efcae	0.5585431
29	0x3eb55950	0.35419703
30	0xbf1ed215	-0.6203931
31	0x3e93a174	0.28834116
32	0x3ea2a3a5	0.31765476
33	0x3ecc6178	0.39918113
34	0x3ed6c21c	0.4194497
35	0x3ed491f4	0.41517603
36	0x3e6450a3	0.22296385
37	0xbf089644	-0.5335429
38	0xbec3848d	-0.38187066
39	0xbf5ae850	-0.8551073
40	0x3d648453	0.055790257
41	0x3f7d2815	0.98889285
42	0xbef192de	-0.47182363
43	0xbf67b8f3	-0.90516585
44	0x3f6605e4	0.8985274
45	0xbf1afeb4	-0.60544896
46	0xbf5f7280	-0.8728409
47	0x3f428b4f	0.7599382
48	0xbefd69d0	-0.4949479
49	0xbf30b80c	-0.69030833
50	0x3e944e8c	0.28966177
51	0x3f414683	0.7549822
52	0x3f5e0c9a	0.8673798
53	0xbe8d10c4	-0.27551854
54	0x3f0ad6fa	0.5423428
55	0xbf47fda4	-0.781214
56	0x3ef514c8	0.47867417
57	0xbf7beb06	-0.9840549
58	0xbed2c36c	-0.4116472
59	0xbf6a02af	-0.91410345
60	0x3f306d7f	0.6891708
61	0xbf14c790	-0.5811701
62	0x3e655c4f	0.22398494
63	0xbf71a1da	-0.9438759

scalar_net.2.weight f4 [1, 64]
0	0x3d61ec2f	0.055156883
1	0x3d13933c	0.036029086
2	0xbd9eb4d0	-0.07749331
3	0xbb12e380	-0.0022413433
4	0x3f011fb7	0.5043902
5	0xbc0a8433	-0.00845437
6	0xbcd691c8	-0.02619256
7	0x3dfba896	0.122880146
8	0x3ef12c38	0.4710405
9	0xbc25e190	-0.010124579
10	0x3dbdb4b2	0.092629805
11	0xbdbad23c	-0.0912213
12	0xbdf2ee23	-0.11861827
13	0xbd9a5fe2	-0.075378194
14	0xbcc943ba	-0.024568427
15	0xbde48ecb	-0.11160048
16	0x3d2c1b50	0.042018235
17	0x3d634b11	0.05549151
18	0xbc905a90	-0.017621309
19	0x3c557000	0.013027191
20	0x3cbabc26	0.022794794
21	0x3dab44c3	0.08362725
22	0x3d107738	0.035269946
23	0xbd7a26d0	-0.06107217
24	0xbde52d08	-0.1119023
25	0xbd74afec	-0.059738085
26	0xbd98644d	-0.07441006
27	0x3db4bfbb	0.08825632
28	0x3d3fad26	0.046795987
29	0x3c9eed68	0.019400313
30	0xbcfbfdb5	-0.030760625
31	0xbde309be	-0.110858425
32	0x3c3f29c8	0.011667676
33	0x3bf196c0	0.007372707
34	0xbcd2f0b0	-0.025749534
35	0x3cb88450	0.022524029
36	0x3cf100a6	0.029419255
37	0x3d0b0d80	0.03394842
38	0x3de3d64a	0.11124857
39	0x3d6d3e10	0.057920516
40	0x3d976aa4	0.07393387
41	0x3d16fc80	0.036861897
42	0xbe5ff0ed	-0.2186925
43	0x3e36a2d8	0.17835557
44	0x3e30e5cb	0.17275159
45	0xbcb60820	-0.022220671
46	0xbc1f3e90	-0.009719506
47	0xbd62c5ba	-0.055364348
48	0xbce85ba8	-0.028364018
49	0xbca81aef	-0.020520655
50	0x3c3990f0	0.01132606
51	0x3e907f93	0.2822233
52	0xbdb92004	-0.090393096
53	0x3dd6955b	0.10477706
54	0xbdcca1e4	-0.09991816
55	0xbe3eb7f5	-0.18624862
56	0xbd055408	-0.03255084
57	0x3d42253c	0.04739879
58	0x3d83861c	0.06422064
59	0xbdaada3e	-0.08342408
60	0x3e2356e3	0.15951113
61	0x3d9d7c62	0.0768974
62	0x3af18d25	0.0018428905
63	0x3eea33b8	0.45742583
