week4/models/lj_net_2000_10.pt (torch, 3080 bytes, 3 tensors)

scalar_net.0.weight f4 [64, 1]
-0.4795915 -0.8513081 0.53437364 -0.19351657 0.2687031 0.8127451 0.8384112 0.13396373
-0.32630134 0.7928925 -0.98832285 -0.0028966665 1.0119636 -0.57272375 -0.71676636 0.0907639
0.3163504 -0.6471517 0.65636337 -0.54913306 -0.6204208 0.6813533 0.7795429 -0.5351896
0.87597024 0.10243963 -0.0010762215 -0.8412057 0.030377626 -0.5247073 -0.368058 -0.026739836
-0.037556052 0.3957862 -0.100771666 -0.50691724 -0.7102951 -0.62755644 -0.8395982 -0.8497546
-0.54998267 0.48950267 -0.2009908 -0.5220127 -0.2783047 0.59559494 0.5958227 -0.563493
0.629443 0.0484066 0.44383213 0.3056085 -0.8868568 -0.24850479 -0.74304354 0.016904714
0.2966525 0.6806113 0.7864639 0.261357 0.40427122 -0.15222454 0.2845664 -0.59628236
00000000: 048d f5be 54ef 59bf b6cc 083f 3529 46be
00000010: 7493 893e 1010 503f 1ea2 563f ca2d 093e
00000020: f810 a7be 01fb 4a3f ba02 7dbf 00d6 3dbb
00000030: 0688 813f 069e 12bf 007e 37bf 6ce2 b93d
00000040: aef8 a13e bcab 25bf 6e07 283f fc93 0cbf
00000050: e6d3 1ebf 2b6d 2e3f 2090 473f 3002 09bf
00000060: 963f 603f decb d13d 0010 8dba 4259 57bf
00000070: 80da f83c 3853 06bf 1972 bcbe 800d dbbc
00000080: 60d4 19bd 7da4 ca3e 6061 cebd 54c5 01bf
00000090: e6d5 35bf 8aa7 20bf e8ef 56bf 8489 59bf
000000a0: aacb 0cbf 18a0 fa3e 88d0 4dbe a0a2 05bf
000000b0: f47d 8ebe e978 183f d687 183f 1441 10bf
000000c0: 2d23 213f 0046 463d f73d e33e b878 9c3e
000000d0: 0c09 63bf 0a78 7ebe 1a38 3ebf c17b 8a3c
000000e0: d6e2 973e 8b3c 2e3f b355 493f 96d0 853e
000000f0: a3fc ce3e c0e0 1bbe b0b2 913e f6a5 18bf

scalar_net.0.bias f4 [64]
0.75671077 -0.56058097 -0.06751389 0.8872511 -0.67567384 0.90763617 -0.53968984 0.40079215
-0.675869 0.86525875 0.6607708 -0.5025326 -0.14818129 -0.22424817 -0.556317 -0.18457675
-0.37766916 0.13775778 -0.2998224 -0.91086936 0.9758612 0.8676995 -0.676564 -0.46064484
-0.63304466 0.8456524 -0.5624527 0.7637737 -0.46276915 0.13532817 1.1356238 -0.21340573
-0.25452137 0.741128 -0.8779255 0.15276289 0.38061953 0.110607624 -0.74319994 0.9156542
-0.45727503 -0.17644121 -0.6627034 -0.37263393 -0.05733502 0.14042227 -1.0532873 0.5187124
-0.6478698 -0.38972783 0.84565425 -0.6419254 0.9925544 0.8587798 0.6144674 0.9456029
0.6132825 0.93374276 -0.0025726487 -0.6569674 0.9274446 0.18866241 -0.86582816 -0.18155551
00000000: ccb7 413f 3c82 0fbf b944 8abd e322 633f
00000010: f6f8 2cbf d85a 683f 1d29 0abf a134 cd3e
00000020: c005 2dbf 9981 5d3f 4628 293f faa5 00bf
00000030: d6bc 17be 50a1 65be ca6a 0ebf b001 3dbe
00000040: da5d c1be 6010 0d3e 5282 99be bc2e 69bf
00000050: 0ad2 793f 8e21 5e3f 4c33 2dbf a4d9 ebbe
00000060: 370f 22bf ad7c 583f e6fc 0fbf ac86 433f
00000070: 14f0 ecbe 7893 0a3e 1f5c 913f 0887 5abe
00000080: a050 82be 91ba 3d3f babf 60bf e06d 1c3e
00000090: 90e0 c23e 4086 e23d 5a42 3ebf 5068 6a3f
000000a0: f41f eabe 01ad 34be eea6 29bf e0c9 bebe
000000b0: 20d8 6abd dbca 0f3e 1ed2 86bf 56ca 043f
000000c0: ccda 25bf 688a c7be cc7c 583f 3955 24bf
000000d0: 0c18 7e3f fed8 5b3f bc4d 1d3f 0813 723f
000000e0: 1500 1d3f c409 6f3f e299 28bb 042f 28bf
000000f0: 026d 6d3f b830 413e eaa6 5dbf b0e9 39be

scalar_net.2.weight f4 [1, 64]
-0.08160257 -0.026619136 0.09142177 -0.05724928 -0.20592092 -0.07080426 -0.04816303 0.0025204453
-0.0077054203 -0.08744317 0.05817896 -0.059430405 0.106205344 -0.095575735 -0.054029033 -0.058969382
-0.05257365 -0.08623266 0.042175043 -0.06172149 -0.122343555 -0.0038423063 0.08423211 -0.07618053
-0.053832203 0.03137006 -0.012628704 0.06693038 0.09628895 0.0331105 0.60762274 -0.06119828
-0.11997624 0.13838845 0.010147274 -0.10285692 -0.04807426 -0.013562426 -0.10193531 -0.060058743
0.011425659 0.018026372 -0.07900518 -0.031247348 0.02341555 0.12280361 -0.04665232 0.10647194
0.023060797 0.048666075 0.12889525 -0.0831245 -0.0072760433 -0.01630975 0.10772596 -0.07297208
-0.026503019 -0.012727133 -0.08798778 -0.21585837 -0.041045412 -0.07340203 0.060120776 -0.03645797
00000000: 401f a7bd 6010 dabc 563b bb3d 397e 6abd
00000010: efdc 52be d301 91bd 9946 45bd 0e2e 253b
00000020: c07d fcbb 6815 b3bd 104d 6e3d 4c6d 73bd
00000030: 3082 d93d 36bd c3bd 8c4d 5dbd e189 71bd
00000040: 7857 57bd c09a b0bd bdbf 2c3d accf 7cbd
00000050: 428f fabd 34cf 7bbb e281 ac3d 8a04 9cbd
00000060: 287f 5cbd e47d 003d a0e8 4ebc cc12 893d
00000070: 2433 c53d e09e 073d 2a8d 1b3f 0cab 7abd
00000080: 1ab6 f5bd b4b5 0d3e c040 263c a6a6 d2bd
00000090: 84e9 44bd f034 5ebc 76c3 d0bd 2800 76bd
000000a0: b032 3b3c 0bac 933c 78cd a1bd 70fa ffbc
000000b0: f8d1 bf3c 7680 fb3d 8116 3fbd f60d da3d
000000c0: ffe9 bc3c 1456 473d 1efd 033e 2e3d aabd
000000d0: e06b eebb 069c 85bc 6e9f dc3d 6372 95bd
000000e0: dc1c d9bc 7785 50bc f032 b4bd fa09 5dbe
000000f0: 3c1f 28bd ce53 96bd 3441 763d f454 15bd
