week4/models/lj_net_2000_30.pt (torch, 3080 bytes, 3 tensors)

scalar_net.0.weight f4 [64, 1]
0.19142807 -0.76977456 0.7925602 -0.9221473 -0.7424835 0.015453463 -0.6259322 1.0037595
-0.41010964 0.6778817 0.5660254 -0.93188643 0.76650816 -0.6037185 0.14442524 1.2363895
-0.3394173 0.08043858 0.8567595 -0.7292559 -0.5276259 0.6615552 1.0075688 -0.83220136
-0.39643097 -0.6272744 -0.7604871 -0.40503633 -0.6733927 0.06836158 0.52168727 0.49875182
0.5895319 -0.78999656 -0.37374938 -0.12988698 -0.016708802 -0.8606895 -0.67560613 0.89566004
-0.9961685 -0.29997957 0.25348836 0.61097664 -0.57221615 0.7389138 -0.8802263 -0.54364276
-0.62391365 0.5152698 -0.94276416 0.10304248 0.2418754 0.68899786 -0.3815605 -0.97025037
-0.17864656 -0.69618154 -0.020112991 0.555815 0.6609256 0.50675917 0.9438047 0.1662652
00000000: b805 443e f20f 45bf 3ae5 4a3f d811 6cbf
00000010: 6613 3ebf 8630 7d3c 183d 20bf 317b 803f
00000020: e4f9 d1be a889 2d3f 0ae7 103f 1c90 6ebf
00000030: e139 443f 4c8d 1abf 36e4 133e 0342 9e3f
00000040: 1bc8 adbe fbbc a43d 9754 5b3f 84b0 3abf
00000050: 7e12 07bf ae5b 293f 04f8 803f 260b 55bf
00000060: 00f9 cabe 0e95 20bf 48af 42bf ec60 cfbe
00000070: 7763 2cbf 2801 8c3d 4c8d 053f 665c ff3e
00000080: 90eb 163f 373d 4abf 145c bfbe 1801 05be
00000090: e6e0 88bc 2656 5cbf 86f4 2cbf fa49 653f
000000a0: e604 7fbf ec96 99be 3ac9 813e f768 1c3f
000000b0: c27c 12bf 7429 3d3f 8356 61bf 2c2c 0bbf
000000c0: ceb8 1fbf b9e8 033f fe58 71bf f007 d33d
000000d0: 2fae 773e 2a62 303f e65b c3be 5462 78bf
000000e0: 20ef 36be f438 32bf 00c4 a4bc e449 0e3f
000000f0: 6c32 293f f8ba 013f 2f9d 713f 6d41 2a3e

scalar_net.0.bias f4 [64]
-0.72037554 0.36763215 1.082192 -0.57836294 -0.030283928 0.25819468 0.25435686 -0.3872261
0.02400589 -0.87382334 1.1836607 -0.68379784 1.159126 -0.036968112 0.49946404 -1.1501074
1.3483809 -0.24899067 -0.04394701 0.50768733 -0.6297724 0.7371728 0.39651936 1.4292221
-0.5153179 0.3721112 -0.667045 -0.81226313 1.1475481 0.94848937 0.5042846 -1.0616928
-0.7597046 1.4121581 -0.2576729 -0.48621356 0.6691877 -0.26827383 -0.92464817 -1.7694497
-0.31377983 -0.9964763 0.0891087 0.45485875 -0.59899175 -0.35662028 1.5395955 -0.3014884
0.2990924 0.73543143 0.23241055 -0.58444417 0.4477377 -0.14788331 0.43586248 -0.05567205
-0.17643428 -0.77561903 -0.5793135 -0.28741822 1.0023025 0.24441184 -0.7088494 0.9291215
00000000: 886a 38bf 483a bc3e 4485 8a3f 980f 14bf
00000010: 0016 f8bc 1832 843e 103b 823e 8042 c6be
00000020: 00a8 c43c e3b2 5fbf 3282 973f 600d 2fbf
00000030: 3e5e 943f e06b 17bd c0b9 ff3e b836 93bf
00000040: bf97 ac3f 69f7 7ebe c801 34bd ccf7 013f
00000050: c438 21bf 5bb7 3c3f 9604 cb3e c0f0 b63f
00000060: e0eb 03bf 5c85 be3e 76c3 2abf 7af0 4fbf
00000070: dbe2 923f 33d0 723f cc18 013f 8de5 87bf
00000080: 007c 42bf 99c1 b43f b4ed 83be fcf0 f8be
00000090: e34f 2b3f 305b 89be beb5 6cbf 547d e2bf
000000a0: c0a7 a0be 1219 7fbf 9f7e b63d 3fe3 e83e
000000b0: 8657 19bf ef96 b6be 7711 c53f b05c 9abe
000000c0: a422 993e 3c45 3c3f 08fd 6d3e 229e 15bf
000000d0: e03d e53e b96e 17be 5e29 df3e 6008 64bd
000000e0: 30ab 34be f88e 46bf e44d 14bf 7b28 93be
000000f0: 734b 803f 1947 7a3e 2777 35bf e8da 6d3f

scalar_net.2.weight f4 [1, 64]
0.075354606 0.10556468 0.036165252 -0.03941512 0.06366272 0.21814266 0.058797404 -0.18963337
0.07839757 -0.50849396 0.13220905 -0.023400128 0.15175924 0.074207276 0.15316218 -0.2733701
0.41821927 0.09786304 -0.15936472 -0.02222772 0.0995864 -0.018189128 -0.10997039 1.1634849
-0.094847426 0.035534665 -0.017647952 0.10798949 1.362562 0.27040696 0.051935308 0.626924
-0.53746104 0.97293866 0.057721153 0.07530826 0.2510274 -0.07383332 0.0040233433 1.1414589
-0.07141368 -0.045369893 -0.03265282 -0.05768422 -0.057692036 -0.098944075 0.97058624 0.10972333
-0.05640298 0.034182947 -0.119188935 0.08752586 0.13800782 -0.1373545 -0.0715436 -0.010197192
-0.027606085 -0.011075333 -0.028559953 -0.09216688 0.1941463 0.08745019 -0.27384794 0.05376502
00000000: 8453 9a3d 4c32 d83d 0422 143d c071 21bd
00000010: 9a61 823d ca60 5f3e 8cd5 703d 402f 42be
00000020: e88e a03d a92c 02bf cf61 073e a0b1 bfbc
00000030: c666 1b3e fcf9 973d 8cd6 1c3e 2af7 8bbe
00000040: d620 d63e 6b6c c83d 8130 23be e816 b6bc
00000050: f4f3 cb3d 5e01 95bc 2838 e1bd 13ed 943f
00000060: 5e3f c2bd cc8c 113d 7092 90bc 9829 dd3d
00000070: 6e68 ae3f c872 8a3e 1eba 543d 177e 203f
00000080: 0c97 09bf 8212 793f 046d 6c3d 383b 9a3d
00000090: aa86 803e ec35 97bd 40d6 833b 531b 923f
000000a0: 5641 92bd c8d5 39bd f7be 05bd 4a46 6cbd
000000b0: 7c4e 6cbd 31a3 cabd 5778 783f a0b6 e03d
000000c0: d006 67bd 6b03 0c3d 5419 f4bd c240 b33d
000000d0: ec51 0d3e a8a6 0cbe 7385 92bd 2012 27bc
000000e0: 2826 e2bc 5075 35bc 90f6 e9bc fdc1 bcbd
000000f0: 4ace 463e 1619 b33d cc35 8cbe b638 5c3d
