week4/models/lj_net_10000_100.pt (torch, 3096 bytes, 3 tensors)

scalar_net.0.weight f4 [64, 1]
0	0x3ef885eb	0.4853967
1	0x3f4ca80a	0.7994391
2	0x3eb00292	0.3437696
3	0xbf24d2b6	-0.6438402
4	0xbf44a4d2	-0.76813996
5	0xc0039e65	-2.0565426
6	0x3f6a31ee	0.91482437
7	0x3f075bd7	0.5287451
8	0xbda41170	-0.080111384
9	0xbf4064e2	-0.75153935
10	0xbf50421c	-0.81350875
11	0x3ec4fefd	0.3847579
12	0x3ecc5bc6	0.39913768
13	0xbec08b0c	-0.37606084
14	0xbdc58030	-0.096435905
15	0x3f8603a0	1.0469856
16	0x3f2ee80f	0.68322843
17	0xbf74aac2	-0.95573056
18	0xbedae3a0	-0.4275179
19	0x3f5c1cbe	0.8598136
20	0x3cb59740	0.022166848
21	0xbf67962a	-0.9046351
22	0x3e25be84	0.16185957
23	0x3f535b0a	0.8256079
24	0xbf1c04d6	-0.6094488
25	0xbf15da08	-0.58535814
26	0x3f5ef30d	0.87089616
27	0x3f5a46c3	0.85264224
28	0xbf3a02fc	-0.72660804
29	0x3f352c9a	0.7077118
30	0x3f3ad5f3	0.7298271
31	0x3f51206a	0.81690085
32	0x3e7b3a36	0.24533924
33	0xbf4ae376	-0.7925333
34	0xbf77712e	-0.96657073
35	0x3f1c0a54	0.6095326
36	0xbecee104	-0.40406048
37	0xbf28f94e	-0.6600541
38	0xbe4d9f38	-0.20080268
39	0x3dfc6f5f	0.1232593
40	0xbf621938	-0.8831973
41	0xbf266728	-0.65001154
42	0x3e96077d	0.29302588
43	0xbc0074d3	-0.007840353
44	0xbf01b962	-0.50673497
45	0xc01d2d38	-2.455885
46	0xbf7883f4	-0.97076344
47	0x3f56d22c	0.83914447
48	0x3e3fb869	0.1872269
49	0x3f898e54	1.074656
50	0x3d2be7ab	0.041968983
51	0x3ecfb13b	0.40564904
52	0xbf713970	-0.9422827
53	0xbf49b7ae	-0.787959
54	0xbc038b80	-0.008028865
55	0xbf1ad7c0	-0.6048546
56	0xbf4668f2	-0.77503884
57	0xbf7ce1ae	-0.9878186
58	0x3f1f0d18	0.62129354
59	0xbe994a08	-0.29939294
60	0xbf6a4344	-0.9150889
61	0xbb1c8c00	-0.0023887157
62	0xbf02bd9a	-0.5107056
63	0xbe718298	-0.23584974

scalar_net.0.bias f4 [64]
0	0x3d1cc7c8	0.038276464
1	0xbf350c0d	-0.70721513
2	0xbf88b15e	-1.0679128
3	0x3f3cc82e	0.7374295
4	0x3f798f36	0.9748415
5	0x4062d772	3.5443997
6	0xbe34e09f	-0.17663811
7	0x3fa5b765	1.2946593
8	0xbe63c140	-0.22241688
9	0x3ecb2bb8	0.39681792
10	0xbe4fb368	-0.20283282
11	0x3f4bc698	0.79599905
12	0xbe25512c	-0.16144246
13	0x3ece1674	0.40251505
14	0xbd8002d0	-0.062505364
15	0xbf69da74	-0.9134896
16	0xbdeafe5b	-0.11474296
17	0xbf27ac4e	-0.6549729
18	0xbee8d02c	-0.45471323
19	0xbfa2ed2c	-1.2728629
20	0xbf22ea02	-0.6363832
21	0x3f018396	0.5059141
22	0x3f1aedc2	0.6051904
23	0xbf7c1722	-0.984728
24	0x3f2bc9ae	0.67104614
25	0x3f46ddd8	0.77682257
26	0xbfd31ce3	-1.649319
27	0xbfceaff5	-1.6147448
28	0xbd8b0970	-0.067889094
29	0x3f55b144	0.8347361
30	0xbf1a46d8	-0.6026435
31	0x3f91ad73	1.1381058
32	0xbeb9fe42	-0.36326796
33	0x3f55a918	0.8346114
34	0xbf5744e4	-0.84089494
35	0xbf009eb5	-0.5024217
36	0xbe2d3d08	-0.16917813
37	0xbc5ea980	-0.013590217
38	0x3e8ed80c	0.27899206
39	0x3e4635de	0.19356486
40	0x3eed8504	0.46390545
41	0x3fcad9b4	1.5847688
42	0x3f8b9ab0	1.0906582
43	0x3f614ddd	0.88009435
44	0x3f38f690	0.72251225
45	0x407b3fa1	3.9257586
46	0xbf60ab50	-0.877614
47	0xbeeaab83	-0.45833978
48	0xbe8df4a6	-0.27725714
49	0xbfb39d7a	-1.4032433
50	0x3f14d03a	0.5813023
51	0xbe483be4	-0.19554096
52	0xbe93aec8	-0.28844285
53	0xbe458528	-0.19289076
54	0xbd49be60	-0.04925382
55	0xbecdeaf0	-0.40218306
56	0xbf68c34a	-0.9092299
57	0x3f5dc4c0	0.8662834
58	0xbef4d7a3	-0.47820768
59	0x3ea61bb4	0.3244301
60	0xbc8271c0	-0.01592338
61	0xbe3a6cf8	-0.18205631
62	0x3ead07e8	0.33795094
63	0xbd8d26c0	-0.068921566

scalar_net.2.weight f4 [1, 64]
0	0x3e0c5de7	0.13707696
1	0x3da8a445	0.08234457
2	0x3f41f206	0.75759923
3	0x3d90adde	0.070644125
4	0xbcc96f38	-0.024589166
5	0xc0ffe1c2	-7.9963083
6	0x3e121465	0.14265592
7	0xbdb291a4	-0.08719185
8	0xbd4c68a0	-0.049904466
9	0xbd900ed6	-0.0703408
10	0x3da50fb2	0.08059634
11	0xbd9e8194	-0.07739559
12	0x3d1228a3	0.035683285
13	0xbc894258	-0.016755268
14	0x3dc29800	0.09501648
15	0x3e3ff687	0.18746386
16	0x3e2abb42	0.16672996
17	0xbdcc6636	-0.09980433
18	0xbdebbc78	-0.11510557
19	0x3e619b9e	0.2203202
20	0xbc49aca0	-0.012309223
21	0xbddcd406	-0.10782628
22	0xbd082b60	-0.03324449
23	0x3de3443d	0.11097
24	0xbcd6a3e0	-0.026201189
25	0xbdcc5fac	-0.099791855
26	0xbf8e39b4	-1.111136
27	0xbf9117a3	-1.1335338
28	0x3d0dce88	0.03462079
29	0xbcd055d4	-0.025431551
30	0x3e6c5600	0.23079681
31	0xbccd90eb	-0.025093516
32	0x3e8cd960	0.27509594
33	0x3af80500	0.0018922389
34	0xbdb1cc2c	-0.08681521
35	0x3e0d0fa6	0.137755
36	0xbc3ab1d0	-0.011394933
37	0x3cb1f468	0.021722987
38	0x3de66d84	0.11251357
39	0x3c41a6f7	0.011819593
40	0x3dd1864a	0.10230692
41	0x3f981eb7	1.1884373
42	0xbe11ed85	-0.14250763
43	0xbe78b73c	-0.24288648
44	0xbd3fff9c	-0.046874627
45	0xc17fdb3a	-15.991022
46	0xbdaae7d0	-0.08344996
47	0x3e83d287	0.25746557
48	0x3e32fa80	0.1747837
49	0x3e9bb6b8	0.3041284
50	0xbe5cc47e	-0.21559331
51	0x3d132d16	0.03593167
52	0x3db0089c	0.08595392
53	0x3d903220	0.070408106
54	0x3d3ae61c	0.045629606
55	0xbda4241e	-0.08014701
56	0xbce9f758	-0.028560326
57	0x3c58d5f0	0.0132346
58	0x3dafe615	0.085888065
59	0x3d719d20	0.058987737
60	0xbd874d24	-0.0660651
61	0xbddf4da6	-0.10903482
62	0x3d30a540	0.043126345
63	0x3a1fe700	0.00060997903
