week4/ljnet_model.pt (torch, 204592 bytes, 10 tensors)

model.0.weight f4 [128, 2]
00000000: ff53 2a3e 35bf aabe b27b 57bf 11a4 b13e
00000010: ab97 ebbc df1c d4be aa93 aebf d78b 9d3e
00000020: 3076 c13f 2a67 27be f054 503f 3df9 973f
00000030: f84d d13d e54e ab3f af46 2f3f 806d 783e
00000040: 9489 41bf ef9c 9a3f fd86 873d 99ab 00be
00000050: 80ef babd 2d21 67bd 67c5 03bf d543 433f
00000060: 6d8d 25bf e94f 54be 614d 77bf f696 23bf
00000070: ec3a 81bf bb1b 243f 052b 0bbe 1ffd 22bf
00000080: e15f f2be 6167 71bf ae2a d2be 19c4 6dbf
00000090: e3e8 813f 86bf e9be 9a8a 253e 4f41 aebe
000000a0: 0a97 a0bf e98d 72bf 6fc2 833e 42ea 153e
000000b0: 9efe 953f 1e23 1cbe 3719 7a3f 079c ad3e
000000c0: 2419 5e3f e1cf b53a cb54 4d3f 1786 013f
000000d0: 7263 4fbe 7779 b13f c087 9abf 13fe cdbe
000000e0: e184 7abe 5af4 b3bf b651 02bf 51bb b43f
000000f0: 5645 64be ee9a 01be 4798 4a3f ca4f 343f
00000100: 5252 533f 8bad 903f 8e95 6cbf 0e56 9bbf
00000110: 684a 093d aa29 533f 1391 0c3f 7692 8dbf
00000120: dcb8 6e3f 46b1 1d3f 299c 9b3f 4d96 42bf
00000130: e2e8 ca3e 3d26 313c fa25 e33e 3475 d1bd
00000140: 5a3e b5be ca36 9f3f 0734 943f 003e a73d
00000150: 2258 6fbf e22a 8bbf 04cf 3c3f 2ee7 463f
00000160: fd07 a0bf 7995 803d 0f97 433f 2c88 dc3e
00000170: 445d 36bf 8c95 9abb 30bc 64bf 2270 85bf
00000180: 5329 46bc ee11 be3e 32a5 39be 9349 85bf
00000190: 2065 093f 2cf1 8bbf 0d08 a4bf c162 eabe
000001a0: 5f3f 61bf bd24 aebf 2a0b 0f3f 0402 90bf
000001b0: d322 6cbf c7f0 89bf afed 8b3f ec5b 1abf
000001c0: 59a2 e03e 0ac6 a4bf 7bca 92bf bb5a 193f
000001d0: 54b1 523f 6753 ae3f 779d 06bf 4e3a 2e3e
000001e0: f8cd 933f 1f21 c83e dd1d cb3e 941e c73f
000001f0: ba62 a9bf c6b0 813e 3aeb 39be 2e9b cdbe
00000200: 387e 3c3e 0d1c a33f 092e 7fbf 5e06 cdbe
00000210: 980d 80be 59a5 ca3f 5b39 363f c876 08bf
00000220: 4ae4 49bf b39b 88bf a4ba 913f dd92 3abf
00000230: 2826 0dbf 426d b5bd bd0e 28bf ff17 8cbd
00000240: 3edf 0fbe c5cd e83d e834 163f 78f6 67bf
00000250: a7f0 88bf 3fb5 e3be 5fa9 963e 68c0 1dbf
00000260: 2a78 93bf 4ade efbe b560 00bf 84f6 623e
00000270: 1672 25bf 07ed 5f3e 5db0 0d3f c966 1cbf
00000280: a7a7 fa3e 9b91 81bf a6e9 89be d32b 133e
00000290: ab76 153e b0b5 1d3f 5a11 613f a611 1fbf
000002a0: d5f8 abbf 8df0 083f f87d e9be 1ca6 643e
000002b0: 810f 993f d90c fb3e 5425 ae3d 1a17 e5be
000002c0: bab0 cc3e 65bf c03e a3cf 3c3f b45b 28bf
000002d0: 7ef4 49bf 09e4 913e 2886 0bbf 9c0f debe
000002e0: 2123 6f3e ce58 283f a4d2 19be 368f cabd
000002f0: 6de6 a33f 9de7 8abe f909 b0bf 4a7b 7a3e
00000300: 03b8 9fbf 9e2f 443f fc51 af3f d181 23bf
00000310: 7f3c 003f 3097 01bf 86c5 6c3f b5e3 3d3e
00000320: efc1 283f f2f3 1cbf 75ce 80be a041 c03f
00000330: 75c6 86bf 2351 b4bf c809 7ebf e212 823f
00000340: 4ef3 e0be 5690 a5be c6b7 923f 9a96 bf3e
00000350: 0354 2b3e 4d0e 0cbf f773 a8bf afea 883f
00000360: db25 82bf 0d14 25bf c121 abbf 4117 423d
00000370: 3351 7a3f 1d37 46be dc3c 9a3e 50c4 533f
00000380: 41b7 8dbe 2660 163f dfcd 303f 7d13 313e
00000390: ab8f bc3e ca2c 133f cfc6 f4be c2b5 0ebf
000003a0: 8716 8d3d 5a22 84bd 94e2 603f ac3f 95bf
000003b0: efdd a03f 37bc 313f fde3 9d3f 8b8a c8be
000003c0: cf3c 3dbe c039 e1be fd4f cf3e 11ef 2abf
000003d0: 6231 43bf 4062 94be c345 5fbe 1fde ac3f
000003e0: 6044 863f dd3b a83f 0e9c a3bb 21b8 cbbc
000003f0: e1cf 41bf 256e 9f3f c221 643f 089a ba3e
0.16633604 -0.33349004 -0.8417312 0.34695485 -0.028758844 -0.41428277 -1.3638813 0.30770752
1.5114193 -0.16347948 0.81379604 1.1872936 0.102199495 1.3383452 0.6846723 0.24260521
-0.7560055 1.2079142 0.06617544 -0.1256546 -0.09127712 -0.056428123 -0.5147309 0.7627538
-0.64668924 -0.20733608 -0.96602446 -0.63902223 -1.0096107 0.64104813 -0.1359063 -0.6366748
-0.47338775 -0.9429837 -0.41048187 -0.92877346 1.0149196 -0.45653933 0.16166154 -0.34034202
-1.2546093 -0.9474779 0.2573428 0.14640144 1.1718328 -0.15247771 0.97694725 0.33908102
0.8675711 0.0013871157 0.8020751 0.5059523 -0.20252779 1.3865193 -1.2072678 -0.40232906
-0.24464752 -1.4058945 -0.5090593 1.4119664 -0.22292075 -0.12656757 0.79138607 0.7043425
0.82547486 1.1302961 -0.924157 -1.2135637 0.033518225 0.8248545 0.54908866 -1.1060321
0.93250823 0.6159862 1.2157031 -0.7601059 0.396308 0.010812339 0.4436491 -0.10227433
-0.35399133 1.2438595 1.1578377 0.081661224 -0.93493855 -1.0872462 0.7375338 0.776965
-1.2502438 0.0627851 0.7640237 0.4307264 -0.7123606 -0.0047175344 -0.8934965 -1.0424845
-0.012094813 0.37123054 -0.18129423 -1.0413078 0.5366993 -1.0932975 -1.2814957 -0.45778468
-0.8798732 -1.3604962 0.5587641 -1.1250615 -0.9224064 -1.0776604 1.093191 -0.6029651
0.4387386 -1.2872937 -1.1468042 0.5990407 0.8230183 1.3619202 -0.5258402 0.17014429
1.1547232 0.3908777 0.3967122 1.5556207 -1.3233254 0.2533018 -0.18156138 -0.40157455
0.18407524 1.2742935 -0.9967962 -0.4004392 -0.2501037 1.583171 0.7118127 -0.53306246
-0.78863966 -1.0672516 1.1385083 -0.72880346 -0.55136347 -0.0885873 -0.6564749 -0.068405144
-0.14050004 0.113673724 0.5867448 -0.90610456 -1.0698441 -0.44474217 0.29426095 -0.61621714
-1.1521046 -0.4684928 -0.50147563 0.22164351 -0.64627206 0.21867763 0.55347234 -0.6109434
0.48956034 -1.012256 -0.26936072 0.14372186 0.1459605 0.6160536 0.879171 -0.62136304
-1.3435313 0.5349205 -0.4560392 0.2232899 1.1957856 0.4903324 0.085032135 -0.44744188
0.39978582 0.37646022 0.7375433 -0.6576493 -0.7888869 0.2849429 -0.5450158 -0.43371284
0.23353244 0.65760505 -0.1502176 -0.098905966 1.2804695 -0.27129832 -1.3753043 0.24461094
-1.2478031 0.7663516 1.3696895 -0.6386996 0.5009231 -0.5062132 0.92488897 0.18543895
0.6592092 -0.6130973 -0.25157514 1.5020027 -1.0529314 -1.4087261 -0.99233675 1.0162013
-0.43935627 -0.32336682 1.1462333 0.37419587 0.16731267 -0.5470932 -1.316039 1.069662
-1.0167803 -0.6448372 -1.3369676 0.047385458 0.9778015 -0.19356962 0.30124557 0.82721424
-0.27678874 0.5874046 0.69064134 0.1729259 0.3682836 0.5749022 -0.4780793 -0.5574609
0.068890624 -0.064518645 0.8784573 -1.1660056 1.2567729 0.6942782 1.2335202 -0.391682
-0.18480228 -0.43989372 0.40490714 -0.66771036 -0.7624723 -0.2898121 -0.21803956 1.3505286
1.0489616 1.3143269 -0.0049929684 -0.024868073 -0.75707823 1.2455488 0.8911401 0.36445642

model.0.bias f4 [128]
00000000: 798b 5c3f 91bd 7f3f 6b37 3e3f abe4 c53e
00000010: ca59 553d 2bc1 57be 904b 1a3e baed 3b3f
00000020: b7ac ce3e 7c1c e3be e017 f53e 4fc1 613f
00000030: 85fc 7a3f 8c2f efbe 6967 ca3e 137e 473f
00000040: f8bf 093f 2e51 2a3e de65 b4be 88a4 dc3e
00000050: f081 12bf 7ccf d63e 1eb1 ab3e d645 bcbe
00000060: 3b2d a0be 224a 92be 1542 d93c 9438 9abe
00000070: 4677 93be a50b 5e3e a9dc 1bbf ef3b 1b3f
00000080: 34c5 39be 860c c5be 19f3 fb3e 8f88 d9be
00000090: 9493 c13d 3c24 b2be be00 793f cb38 593f
000000a0: 43e9 d03e 22fa 03bf 0d7e a53d 74fa 643f
000000b0: 1968 02bf 8590 f83e 6f48 443f f6ab 9c3d
000000c0: a987 0a3f 114a 083d 3e98 5bbe 72de a63d
000000d0: 914e f2be 8413 65be 0929 a23d c113 aebe
000000e0: 82ef bfbe e9e4 b53e 4788 91be f766 1f3f
000000f0: 2377 893e 3fb2 fa3c 4a67 953d 1cd0 f03e
00000100: 94a7 cf3e 079c 903e a9a2 853c ab4c 1e3f
00000110: f487 a8be 0931 d1be d084 813f fff9 813f
00000120: 24f5 553f 88f4 b43e d2cf 9f3e f984 443f
00000130: 12bc b13e 09c5 0b3f 4c3e 593f 21bb 393f
00000140: 292c c3be 88a0 4b3f 153f 6f3f b7d4 98be
00000150: 9a39 e13e d470 0e3f 9ed1 45bd dc5d 3f3f
00000160: 8858 003f 4002 d5be 4ab9 553f b68c 373f
00000170: 1f74 dd3e 5fb7 193f 69eb 8fbd 3e30 15bf
00000180: 887c b43e 6262 093e 24e5 ff3e 1c92 0f3f
00000190: e251 de3e 7d17 c83b a00c dbbe 5db2 5cbe
000001a0: 1d9c 733e 5fe8 8a3e bc4f 4a3f 78bf f0be
000001b0: fd61 ddbe 3bfa 473e 8777 acbe 7ab7 443f
000001c0: 592a 5e3f d0f7 403f 0d05 6e3f a18e 333f
000001d0: 8c1a 18bf d874 89bd 6cd0 c2be 295a 683e
000001e0: 3b41 663f 598f 593f aa09 6a3f 36e3 213c
000001f0: a282 36be 3a1a 26bf 01f7 d83e c103 3f3f
0.8615032 0.9989863 0.7430331 0.38651022 0.052087583 -0.21069781 0.15067887 0.73409617
0.40366146 -0.4435767 0.47869778 0.8818559 0.98041564 -0.46715963 0.3953202 0.7792675
0.53808546 0.1663253 -0.35233968 0.43094277 -0.5722952 0.41955173 0.33533567 -0.3677203
-0.31284508 -0.28572184 0.026520768 -0.3012129 -0.28801936 0.2168413 -0.60883576 0.60638326
-0.18141633 -0.38486117 0.49208906 -0.42486998 0.094519764 -0.3479327 0.9726676 0.84852284
0.40802965 -0.5155355 0.08080683 0.8944466 -0.5094009 0.4854776 0.76673025 0.076499864
0.5411325 0.03327376 -0.21444795 0.08147897 -0.47325566 -0.22370726 0.07917983 -0.33999446
-0.37487417 0.35526207 -0.28424284 0.62266487 0.26848707 0.030602572 0.072950915 0.47033775
0.4055754 0.2824404 0.016312914 0.61835736 -0.32916224 -0.40857723 1.0118656 1.0154418
0.8357718 0.35342813 0.31213242 0.767654 0.347138 0.54597527 0.8486068 0.7255116
-0.3811963 0.79541826 0.9345563 -0.2984979 0.4398926 0.5564091 -0.04829561 0.74752593
0.5013509 -0.4160328 0.83485854 0.7169908 0.43252656 0.6004543 -0.07027323 -0.58276737
0.3525126 0.13416436 0.49979508 0.5608232 0.43421847 0.0061063156 -0.4278307 -0.21552415
0.23790021 0.2713041 0.79027915 -0.4702108 -0.43238822 0.19529049 -0.33684942 0.76842463
0.8678337 0.7537813 0.92976457 0.7013951 -0.5941551 -0.06711739 -0.38049638 0.22690643
0.89943284 0.84984356 0.91420996 0.009880831 -0.1782327 -0.6488377 0.4237595 0.74615103

model.2.weight f4 [128, 128]
00000000: 9578 e0bc 6aa2 b3bd 9506 9f3d 8879 87bd
00000010: 8883 7abc 3c54 853d 0931 6fbc 7c70 87bc
00000020: 9324 48bd 244b ccbc ebf5 d73b 8e35 fe3b
00000030: e97c 8b3d 5caf d33a de71 adbd 3a43 193d
00000040: dab2 b93c 6833 7bbd 081a 373d e004 953d
00000050: a13d 51bd 88fe d8bc 7964 413d bf33 12bd
00000060: 9612 883c aa22 81bd 36ca 09bd a6b5 91bc
00000070: a0c4 d93c 5c23 973d bffb a43d e9db f9bc
00000080: ef77 2abd 26b3 143d 57aa 78bd 8507 a6bd
00000090: fb2a 59bd b83a 18bc 9983 d6bc cbca a9bd
000000a0: ae48 023c 3649 9b3d 559e 2c3d f229 88bc
000000b0: 921b 8cbc b7d7 93bd 3615 bfbd d3ae 05bd
000000c0: a739 1dbc b0a4 b9bd c05f 273d e9ab 663c
000000d0: 3794 883c a306 4a3d 5ef4 11bb 86a3 d4bc
000000e0: bf0e 9c3d 509c ef3b 36da ab3c 8b05 e23c
000000f0: c70d 46bd 8873 76bd cb9a b4bc b75d 21bc
00000100: 2cac 66bc 2b34 2cbd 653f 913d 5ecd 99bd
00000110: bb71 f23c 4e13 cbbc b5ca 85ba 678a 303d
00000120: 8c30 903c 361e 80bd fdfb 13bc e311 a5bc
00000130: 8285 8b3d ec0f d53c 3ad6 80bd 64de 94bc
00000140: 986c 83bb a02e 9b3c 5520 b13c 61c3 79bd
00000150: 58dd 71bd 2413 463d 3b05 2e3d c458 58bd
00000160: 8f6b 6e3d 31a9 9ebd fc63 a9bd c1ff babd
00000170: a042 6d3b 8bfa 4b3c 111b 1fbd e2be ab3d
00000180: 52aa 5dbd 906c bebc 2ace 153b acad 8fbd
00000190: 387c cc3c 0131 993d b931 8c3d f3e6 003c
000001a0: 9fcc a6bd e5c0 df3c 2642 5b3d 8305 9ebc
000001b0: cbf5 8e3c 573b 8fbd 18aa 173d 75a0 0c3d
000001c0: befe efbc 3908 743d 54e7 80bd 65de 44bc
000001d0: 146d 12bd f39a 063d f31c 963d 8fa0 0e3d
000001e0: 1419 1dbd 05bd a7bd 6fdf 1c3d 21c2 283d
000001f0: 222a 66bd e38d 3d3d 7381 b7bd 4e1b 1fbc
00000200: 572e 1b3e d268 b53e b1a9 1f3e ee02 c3be
00000210: 80af 6cbe fe94 4abe 6fdf 183e 7b38 2c3e
00000220: 2e8e 7c3e 7211 af3d 125f 733e ef19 f73e
00000230: a61a a03e fa53 4fbf 1d24 0abe c622 b33d
00000240: a200 a3be 8b80 a8be 8f4f aebf 08f9 7cbc
00000250: b43d 64bf d6a1 0b3e 8c89 9ebd 59a1 4cbf
00000260: f598 a6bf 9653 53bf 0fd9 083e b89d 4abf
00000270: 71e9 2bbf e921 0d3e edbd 82bb e3f2 813e
00000280: 327f 4cbe 19dd 86bf c6b0 f13e 9ebf 61bf
00000290: 8478 1dbe 4a1d 5fbf 7a1b 0b3e 2b3e 5a3e
000002a0: c55e 8e3e 618c b1bf 41b7 87bf a937 833e
000002b0: 57a3 17bf a1e5 4b3e 780a 9d3e 0673 84bf
000002c0: fbac 693e 9abb 9fbe 72c6 0cbf e046 4cbf
000002d0: 7889 97bf cb8c c9be 09f5 4ebf 3be6 38bf
000002e0: 6dc4 5bbf 7258 30be 383b 08bf ad22 c53e
000002f0: b43d ef3d 9ce8 703e 3653 1bbf 8cc0 26bd
00000300: 0ea1 bd3e 1336 e6be 0557 aa3d 1f01 bb3c
00000310: 08f9 8fbf c5e7 9fbf be5c a23e 7a84 7a3e
00000320: 63b0 a23e 740e 12be 2e4c 12bf b716 f13d
00000330: aeda e2be f725 a43e f73f b93e 5210 913c
00000340: a09b 64bf a6c4 903e 95d0 5d3e e68b 97bf
00000350: 66b7 cbbd 9792 b43e 02fc 91be 8e3c 863d
00000360: a624 333e 8544 96bf 485d a03e beb9 103d
00000370: 9c01 8f3e d20a 5f3e 4697 5dbe dd37 0fbf
00000380: 81e4 a4be 3b64 97be 3a05 53bd 6177 bf3d
00000390: 17e3 f5bd 8801 0a3e 48de 95bf 3931 f2be
000003a0: 8a96 45be 19d4 983d c4fe 763d 57d5 27bf
000003b0: 8dd0 8cbf 4ece 2abf 3af4 a4bf 09fd 9e3e
000003c0: b607 a33e d162 453e bbcf 643e 1583 34bc
000003d0: 6c27 fcbb 9bf6 e3be 74db 34bf 0678 73be
000003e0: 7dec 5e3e 2634 1d3e 8528 853e 96ec 043d
000003f0: 14ec 86be f910 63bd acfa 153e 6d29 553e
-0.027401248 -0.087712124 0.07764927 -0.06614977 -0.015290149 0.06510207 -0.014599093 -0.016533129
-0.048863005 -0.024938174 0.006590595 0.007757849 0.06810934 0.0016150284 -0.08468984 0.037417628
0.02266829 -0.06132832 0.04470256 0.072763205 -0.051084165 -0.026488557 0.04721496 -0.03569388
0.016610425 -0.0630544 -0.03364011 -0.017786812 0.026583016 0.07379791 0.08055829 -0.03050037
-0.041618284 0.03630366 -0.060709324 -0.08106903 -0.053019505 -0.009291343 -0.026185798 -0.08290633
0.0079518985 0.07582323 0.042143185 -0.016621564 -0.01710299 -0.07218879 -0.093302175 -0.03263743
-0.009596265 -0.09064615 0.0408628 0.0140790725 0.016672237 0.049322736 -0.0022270898 -0.02595688
0.0762 0.007312335 0.020978075 0.027590534 -0.048352983 -0.060168773 -0.022046467 -0.0098490035
-0.014079135 -0.04204194 0.0709217 -0.07509874 0.029595247 -0.024789479 -0.0010207506 0.04310074
0.017601274 -0.06255762 -0.009032247 -0.02015013 0.06812574 0.026008569 -0.062908605 -0.01817245
-0.004010748 0.018943131 0.021621862 -0.060977343 -0.05904898 0.048358098 0.042485457 -0.05281903
0.058208045 -0.077471144 -0.08271024 -0.091308124 0.0036203042 0.012449871 -0.038844172 0.083860174
-0.05411751 -0.023245126 0.002285848 -0.07015547 0.024961576 0.0748005 0.06845421 0.007867563
-0.08144497 0.027313659 0.05352988 -0.019289738 0.017451188 -0.0699374 0.03702745 0.03433271
-0.029296275 0.059578154 -0.06294122 -0.012015914 -0.035748556 0.032862615 0.073297404 0.03482109
-0.038353994 -0.081903495 0.03829902 0.04120076 -0.056192525 0.04627789 -0.08960237 -0.0097111
0.15154396 0.35431534 0.15592076 -0.38088173 -0.23113823 -0.19783399 0.14928983 0.1681842
0.24663612 0.08548249 0.23766735 0.48261973 0.3127033 -0.80987513 -0.13490339 0.08746867
-0.3183642 -0.3291057 -1.3618029 -0.015440233 -0.8915665 0.13635954 -0.07741079 -0.79933697
-1.3015429 -0.82549417 0.13364051 -0.7914691 -0.6715308 0.13782467 -0.003989926 0.2538062
-0.19970396 -1.0536224 0.4720518 -0.8818301 -0.15378004 -0.87154067 0.135847 0.21312778
0.27806678 -1.3870965 -1.06028 0.25628403 -0.5923361 0.19911815 0.3067205 -1.0347602
0.22819893 -0.31197816 -0.54990304 -0.79795647 -1.1838827 -0.3936523 -0.80842644 -0.72226304
-0.85846597 -0.17221239 -0.5321536 0.38503018 0.11681691 0.23526233 -0.60673845 -0.04071097
0.37036937 -0.4496313 0.08317379 0.022827683 -1.1247873 -1.2492605 0.31711382 0.24464598
0.31775197 -0.14263326 -0.5714749 0.11771911 -0.44307464 0.32060215 0.36181614 0.017707977
-0.89299965 0.2827503 0.21661599 -1.1839569 -0.0994709 0.3526809 -0.2851258 0.06554519
0.17494449 -1.173966 0.31321168 0.035333388 0.27930915 0.21781471 -0.21639737 -0.55944616
-0.32205585 -0.29568657 -0.051518656 0.093489416 -0.120062046 0.13477147 -1.170846 -0.4730318
-0.19295707 0.074623294 0.060301557 -0.65559906 -1.1001145 -0.66721046 -1.2887032 0.31052426
0.3184182 0.19275977 0.22344868 -0.0110175805 -0.007695129 -0.44524083 -0.7064736 -0.23776254
0.217699 0.15351924 0.26007476 0.03245219 -0.26351988 -0.05543611 0.14646405 0.20816584

model.2.bias f4 [128]
00000000: cd7b 543c 43c7 993e 9416 123d cd92 b33e
00000010: 47c5 94be 85f1 b63e 2b76 953e f681 12be
00000020: 85de e73a 2a33 a33e 40d8 583e f96f 213d
00000030: 2799 d33e 66f0 3ebe 59b0 9b3e 7a8e 5c3e
00000040: 0525 ab3e 4536 6239 4412 e1bd 7417 223e
00000050: a8b2 6a3e 1db5 ec3e f4d3 9b3e 47fa 8d3e
00000060: efef 343d 6351 b4bc de51 07be 3489 113e
00000070: 9fd9 d93e 0612 813e 50cd 563e cc77 36be
00000080: e348 b33d 8c73 1fbe db98 b03e 9456 a93e
00000090: 68dc df3e dc9f 813e ee1d 663d 4769 f5bc
000000a0: b8c6 d83e 7f63 a93e 8ed0 adbc d731 b83e
000000b0: 62f4 41be 1c7c 493e 9b0d 903e 2e11 243e
000000c0: d67f c03e 36cf 3e3e 29ab b33e 69f2 8b3e
000000d0: dac3 4ebe 892e 94bd 30ce e9bd b7bd 2cbe
000000e0: 0965 a43e 4fa6 223e bb1d 903e ad8a b53e
000000f0: c1b3 36bc 64ad 503e f0f5 49bc 8422 813d
00000100: 2ead a93d 0d1a 903e d956 493e 25a7 7a3e
00000110: 79de 873e dc8c 983e 2e50 493e 17ca 043d
00000120: b020 993e 9a7c b13e 9138 b33e f8ea 903e
00000130: 8d63 3e3e 1319 d43e d0b8 4ebe 6b06 343e
00000140: a04b 9a3e 1a30 b8bd aa82 b3bc bd80 3f3e
00000150: f954 b93e 79d3 a63e e3b3 983e 3465 203d
00000160: 2b97 503e bc34 b13e 9fa3 963e 0018 8b3e
00000170: 14cc 833e 2d6a 903e 052d 92bd 9341 5b3e
00000180: 2e1d c83e 88ff 0a3e 17a7 473e d024 6c3e
00000190: aec3 9c3e ce54 203e adfa b53e b772 323e
000001a0: adee af3e 2894 8f3e f1ea 153e 7012 99bd
000001b0: 621d af3e eac2 843d 7516 19bd 201f 3cbe
000001c0: 2768 3a3e d915 5dbc e420 97bd a600 b83e
000001d0: 7441 483e ffa6 8a3e 6212 083e 0ad2 603d
000001e0: 3dda 933e 1ea0 143d 5795 773d 8d1e 8d3e
000001f0: cf36 a83e 7283 403e 0c58 aa3e fd9a 483e
0.0129689695 0.30034837 0.035666063 0.35072938 -0.2905676 0.3573114 0.29191718 -0.14307389
0.0017690217 0.31874973 0.21176243 0.039413426 0.41327783 -0.18646392 0.3040798 0.21538725
0.3342668 0.00021573257 -0.10989812 0.15829259 0.22919714 0.46231928 0.30435145 0.2773001
0.04417413 -0.022011464 -0.13214824 0.14212495 0.42548844 0.25209063 0.20976758 -0.17819136
0.087541364 -0.15571421 0.3449162 0.33073866 0.43722844 0.25317276 0.056180887 -0.029957427
0.4233911 0.33083722 -0.02121761 0.35975525 -0.18940881 0.1967625 0.2813538 0.16022179
0.3759753 0.18633732 0.35091522 0.27333382 -0.20191899 -0.072354384 -0.1141628 -0.16869245
0.32108334 0.15883754 0.28147683 0.35457364 -0.011151255 0.20378643 -0.0123267025 0.063054115
0.082849845 0.28144875 0.19662036 0.24477823 0.2653692 0.29794967 0.19659492 0.03241929
0.2990775 0.34665376 0.35004094 0.28304267 0.18592663 0.4142538 -0.20187688 0.17580573
0.30135822 -0.0899355 -0.021912891 0.18701454 0.36197641 0.32583216 0.29824743 0.039159015
0.20370166 0.34610546 0.29421708 0.27166748 0.25741637 0.28206006 -0.07137493 0.21411733
0.39084762 0.1357404 0.19497333 0.23060918 0.30618042 0.1565735 0.35542813 0.17426573
0.34361783 0.28042722 0.14640404 -0.0747422 0.34202105 0.064824894 -0.037374932 -0.18371248
0.18203793 -0.013493978 -0.0737932 0.35937995 0.19556218 0.27080533 0.13288262 0.05488781
0.2887744 0.036285512 0.060445156 0.2756237 0.32854316 0.18800142 0.332703 0.19590373

model.4.weight f4 [128, 128]
00000000: 5539 503c 5732 aebd bd28 2439 b7cf 91bd
00000010: bd20 f9bc ae0c b0bd 45ed f33c 062d 8dbd
00000020: ad7d 443c 42cb 043c 5859 83bd ae45 6e3c
00000030: e649 373d be59 163c 28e0 a9bd 6dc7 f4bc
00000040: e9fb 303d 69c5 6fbd 5a50 143d b34c 573d
00000050: 82d8 663c 25d0 75bd 94a3 8dbd 2fd0 2abd
00000060: 5099 1ebc 059d 89bd 3312 98bd 9ffe 863c
00000070: 3cb1 2c3d 9b21 2dbc 8e21 243d 34df a23c
00000080: d407 7cbd da53 30bc 3b42 48bd b195 c5bd
00000090: 92a7 b9bd 7bcc a4bc 931b 18bd 3d3f 123d
000000a0: 498f a1bc 4290 44bc 84b2 493c bc20 c23c
000000b0: b878 31bd 0d0c 813d 7b30 35bd 6ea3 3f3d
000000c0: 4936 afbd 6aa4 043d e6f8 a6bd 0334 9fbd
000000d0: c0f3 87bd 5323 a63c 847a 593d 04d8 ca3c
000000e0: 545c 8d3c 1922 d6ba 8b6e afbd 85c8 c2bd
000000f0: e1c9 74bd 528a a1bd 9cef 893c 7548 823b
00000100: 3667 b1bc fc3a b3bd 8d40 fd3c 6f1c 73bd
00000110: 136a a3bd efae acbc abee bdbd 2c84 b1bd
00000120: 3cca 443d 3783 9a3d 0308 983c 057d 463b
00000130: e8fe 86bd 4753 573c b129 863c 1a53 903d
00000140: d124 9c3d a696 7abd 026e eabb d363 2bbd
00000150: 6f83 b4bd a9cd 403d 22d5 93bd 23c0 56bd
00000160: 4dc6 02bd 73f0 2e3c add7 6f3b 9297 8f3d
00000170: 3c45 f73c 2329 373d 91a8 d23b 8a1e 3abd
00000180: c0d4 793d 9699 f6bc 9382 863d 3e45 a2bd
00000190: e9fc c4bd 8b66 f0ba 4cc7 333c cb82 0e3d
000001a0: 4326 cebb a88d b4bd c254 4ebd 6e92 873c
000001b0: 6aea adbd bcea 5bbc 6f57 343a 64a7 593d
000001c0: 87f5 77bd ffb5 863c 69f6 a13d 1bae 7abc
000001d0: 75df bcbd 720c eb3b 91a0 973c b106 a1bd
000001e0: a8a0 cabd c612 fa3c 90ee 76bd 759d 85bd
000001f0: 1595 3f3c 7603 a43d 31e4 fb3c b517 9b3d
00000200: 5b0b 29bd df8a babd f938 39bd 3b87 da3d
00000210: 2fa2 9bbf c32c 6abe a63f 1e3e c512 3e3f
00000220: 57dd 8c3c ba13 40be 3581 d93e 3331 73bc
00000230: 3c76 c53d b31b 3c3f b330 3b3f 9f7c 66be
00000240: 4dca b3be 6d26 243d 8341 3a3a bc1a b83e
00000250: ec63 73be a2dd f43e 146a 40bd 3075 88bd
00000260: 1abb fd3e 61b1 8dbd 0aa5 513f 72f9 b33e
00000270: 12c0 733d 4be0 1a3f 9bd0 313f 1597 463f
00000280: 97b0 653f d485 363f 50e6 073d 1436 3cbe
00000290: 9718 cb3e 486f ed3e 715d fabc 01a1 b13c
000002a0: dbc7 b43e 5f2b 4d3d 395b 34bf cd13 d83b
000002b0: 2cae 313f 3f3a 0c3f 3eb2 e83e 2b71 1bbe
000002c0: 934f 113e c710 b33e 5182 043e f844 de3d
000002d0: e213 afbf 9c3d dc3c 110e 503f 12ee 2d3f
000002e0: 69f9 06be c3d4 4f3d a187 e03c 438c 41be
000002f0: 88b7 383d 7a74 563f 7f3c a73b f476 d3bc
00000300: 3827 f13e a64a 853c b002 143f 48ff 48be
00000310: a0d2 db3e 33b8 453e 4bd8 afbd 2fab 3b3c
00000320: e757 85bd 749c 2c3e 792a cf3c b67a ae3b
00000330: 553d 073f a3f9 d13d 3df2 9cbf 2506 f73e
00000340: 3a30 a2be df2a 413d 3b53 22bd eb92 0e3f
00000350: 6563 a5bd 2ad6 58be f2f7 2c3e a17e 0ebd
00000360: 8710 cabe 9df4 753e fe50 a2be 5315 e13e
00000370: 0d19 533e 5117 1a3f 3f6c 333d 2381 f53e
00000380: 018e 473e 7cc7 1b3f cb3b a53e 002f 29be
00000390: c467 c9bd 8567 023f c583 1f3e a1c9 3a3c
000003a0: b7fb 98be 469f 0b3f c3a0 df3e c170 d63e
000003b0: 33bc bb3e 0681 b7bc 7f43 cabc 1bd6 523f
000003c0: 7f7e 133f 76d3 06bb d37b 5cbc a8c4 9f3d
000003d0: a0e7 68be d08d 88be 479f e63e b15a 89bd
000003e0: ca9f 673e cd57 66bc 2ba9 9dbc 6066 34be
000003f0: 90d7 673d 4fe6 a2be a277 88be 3383 0a3f
0.0127089815 -0.08505695 0.00015655435 -0.071196966 -0.030411119 -0.085961685 0.029776225 -0.06893353
0.011992854 0.008105101 -0.06413525 0.01454298 0.04474821 0.00917667 -0.082947075 -0.02988025
0.04320899 -0.058537874 0.03620944 0.05256338 0.014089705 -0.060012955 -0.06915966 -0.041702446
-0.009680107 -0.06719402 -0.07425346 0.016478835 0.04216121 -0.010567094 0.040071063 0.019881822
-0.061530903 -0.010762179 -0.048891287 -0.09647692 -0.090651646 -0.020117035 -0.03713567 0.03570484
-0.019721644 -0.011997284 0.012310628 0.02369725 -0.043328017 0.06301127 -0.044235688 0.046786718
-0.08555276 0.03238336 -0.08152942 -0.07773592 -0.066382885 0.020280516 0.053095356 0.024761207
0.01725594 -0.0016337066 -0.08566006 -0.09510902 -0.05976284 -0.07887711 0.016837887 0.0039759227
-0.02165566 -0.08751485 0.03091457 -0.05935329 -0.079792164 -0.021079509 -0.09274038 -0.08667788
0.04804443 0.075445585 0.018558508 0.003028692 -0.06591588 0.013142413 0.016377302 0.070471
0.0762421 -0.061178826 -0.0071542272 -0.041843247 -0.088141315 0.047071133 -0.07218386 -0.05242933
-0.031927396 0.010677445 0.0036597059 0.070113316 0.03018438 0.044716965 0.006428786 -0.04543928
0.06099391 -0.030102532 0.06567874 -0.07923363 -0.09618551 -0.0018341107 0.010972809 0.034792703
-0.0062911822 -0.08816081 -0.0503738 0.016549315 -0.084919766 -0.013422664 0.00068794837 0.05313815
-0.060536887 0.016444204 0.07908327 -0.015300299 -0.092223085 0.0071731145 0.018509181 -0.078626044
-0.09893924 0.03052653 -0.060286105 -0.06524173 0.011693259 0.080084726 0.030748459 0.07572881
-0.041270595 -0.09108519 -0.04522035 0.106703244 -1.215887 -0.22868638 0.15453967 0.7424739
0.017195387 -0.18757525 0.4248139 -0.014843273 0.09641692 0.73479766 0.73121184 -0.22508477
-0.3511528 0.04007571 0.0007105099 0.35957897 -0.23768586 0.47825342 -0.046976164 -0.06662977
0.4955681 -0.06918598 0.81892455 0.3515125 0.059509344 0.60498494 0.6945893 0.7757428
0.8972258 0.71297956 0.033178627 -0.18380004 0.39667198 0.46373963 -0.030562134 0.021683218
0.35308728 0.05009019 -0.70451695 0.0065941573 0.6940639 0.54776376 0.45448488 -0.15179889
0.14190511 0.34973738 0.12940337 0.108529985 -1.3677943 0.026884846 0.81271464 0.6794139
-0.1318108 0.050740015 0.027408423 -0.18901162 0.045096904 0.8377148 0.0051036472 -0.025813557
0.47100234 0.016270947 0.578166 -0.19628632 0.42934132 0.19308548 -0.085861765 0.011454388
-0.06510907 0.16856557 0.025288807 0.005324687 0.5282796 0.102526926 -1.2261425 0.48246875
-0.3167742 0.047160026 -0.039630156 0.5569293 -0.080755986 -0.21175447 0.16891459 -0.03478873
-0.39465734 0.24019094 -0.31702417 0.43961582 0.20615025 0.6019183 0.043804403 0.47950086
0.19487764 0.60851264 0.3227218 -0.16521835 -0.09834245 0.5093921 0.1557761 0.011400611
-0.29879543 0.54539907 0.4367734 0.418829 0.36667022 -0.02240039 -0.024690388 0.8235795
0.5761489 -0.0020572818 -0.013457256 0.07801181 -0.22744608 -0.26670694 0.45043394 -0.06706751
0.22619548 -0.014059019 -0.019245705 -0.17617178 0.05660206 -0.31816337 -0.26653773 0.54106444

model.4.bias f4 [128]
00000000: 01cf 11bd ea47 2f3e 4afe 423e 53d9 b93e
00000010: e2ea 073f 7cdf 033e 2fd8 803e 81cd bc3e
00000020: 229e f03e d716 263e cfb2 ce3d 90c5 bf3e
00000030: 9aa8 303d 5bc4 8b3d dfe0 6d3e c026 803c
00000040: ced6 da3e 72c2 353e 1dc7 cb3e bb41 b33e
00000050: a96e 2a3e 3c66 e83d 9df0 af3e 4f60 773e
00000060: 6133 923d 69ae 963e 47e0 223e 2a8e 423e
00000070: b491 263d e9cd bebd 943c 643e a349 8a3e
00000080: cb88 bc3d db54 bdbc 8d13 fd3e dfcd ed3d
00000090: e05c e93c d233 bf3e 4e48 5d3d bdc5 293e
000000a0: 992e e03c 91e2 ee3e 1e33 39bd 2ac8 b73e
000000b0: 931f ab3d 9212 c13e f852 d83e 847a 743e
000000c0: 8322 973e 6801 5d3e 4c51 5d3d 891d 7e3e
000000d0: 1e48 8b3d 5c03 043d cc1e 853e 1f62 8f3e
000000e0: 7bbe 853d a682 0c3e 11cb cd3e a140 213e
000000f0: cd49 4f3e 817e 353e 6c35 a13e 1be3 893e
00000100: 21c6 b13e 9b74 cb3e c346 543e 09e1 b03e
00000110: accf ef3e fa6f 1c3d 0197 863d e74f 993e
00000120: 8481 a53e 5dad 8d3c 610b 2b3e eb30 2b3e
00000130: 4759 d8bd 2ccc 213e 81d8 8d3d 14fe 213e
00000140: c4d0 c43e d34d da3e 6c0f 423d 93bc 983e
00000150: e8d0 8a3e d98d 083f cb10 9b3d fd76 783d
00000160: a2d5 9f3e 46fb 343e a629 5f3e 4d74 493c
00000170: 4105 9e3d 54ee b93e f5cb a93d 67a9 f93d
00000180: 0b51 5d3d 8328 53bd 71e8 363e c79c 953d
00000190: 04ac 323e 3d02 783d 2cba 2bbd bff6 353d
000001a0: 14fe c33e 375a 5d3e a6e4 983e f55f 8c3e
000001b0: cd9c 833e a7e0 b73e d8a1 8a3e 6f10 473e
000001c0: d9e9 013e e66b 4a3e d4ce c1bd d7c2 a23e
000001d0: 60f6 9b3e 9bc1 26bd 6cd6 05bd cca3 a73c
000001e0: 3906 363d 494f d53d 78e3 2b3e 4da0 123e
000001f0: 2cf6 ce3e 7e56 933e 3b51 e33e be24 1f3c
-0.035597805 0.17117277 0.19042316 0.36298618 0.5309278 0.12878221 0.25164935 0.36875537
0.46995646 0.1621965 0.10092699 0.37455416 0.04312954 0.06824561 0.23230313 0.015643477
0.42742008 0.17749956 0.3980035 0.35011086 0.16643776 0.11347625 0.3436326 0.24157833
0.07138706 0.2942994 0.15905868 0.18999544 0.040666297 -0.09316618 0.22288734 0.27009305
0.09205779 -0.023111751 0.4942898 0.116115324 0.028486669 0.37344223 0.054024033 0.16579337
0.02736597 0.4665723 -0.045214765 0.358949 0.08355632 0.3770948 0.422508 0.23874861
0.29518518 0.21582568 0.05403261 0.24815954 0.06800865 0.032229766 0.2600006 0.28004548
0.06530472 0.13721713 0.4019399 0.1574731 0.20242997 0.17724039 0.3148607 0.2693108
0.34721473 0.397374 0.20730118 0.34546688 0.4683813 0.038192727 0.065717705 0.29943773
0.32325375 0.01729458 0.1670356 0.1671788 -0.10563903 0.15800542 0.069260605 0.1581958
0.38440526 0.426375 0.04737799 0.2983137 0.27112508 0.5334144 0.075715624 0.06066035
0.31217676 0.17673978 0.21793231 0.012295795 0.07715846 0.36314642 0.08290855 0.12190514
0.054032367 -0.051552307 0.17862107 0.073052935 0.17448431 0.06054901 -0.041925594 0.04442477
0.38279784 0.21616445 0.29861945 0.2741696 0.25705567 0.35913584 0.27076602 0.19439863
0.12686862 0.19767722 -0.094632775 0.31789276 0.30461407 -0.04071198 -0.03267519 0.020463847
0.04443953 0.10415513 0.16785991 0.14318962 0.4042219 0.28776926 0.4439791 0.00971335

model.6.weight f4 [128, 128]
00000000: 50a6 a23c c9ce b3bd 8b0f 81bd 0e6f a03c
00000010: e21a 283d da12 d4bb 1e27 afbd 720e 6bbd
00000020: 9c8c 62bd a9ca 303d 9d87 12bd 9376 a4bd
00000030: fc55 ef3c b29b 59bd 7c1f 623d 1a17 19bd
00000040: 305b 443d a32b 03bd 3d8e 71bd ad1b b43c
00000050: fa21 8dbd 8ce6 2fbb 8dc4 dbbc f6ec 3c3d
00000060: 3d17 3c3d 824d c4bc 75b4 37bc b248 94bd
00000070: c9b0 44bd 269e 953d c12e 89bd 620a b5bd
00000080: e118 39bd 256f af3d 94b6 873c 01de 8c3d
00000090: 7f48 ddbd 06a7 8c3c 8a09 e6ba 8c77 c6bd
000000a0: ebb0 96bb 59e8 29bc eb1c 843a ab24 85bc
000000b0: 3626 883c b552 76bd 5c45 b4bd 1d9c cd3c
000000c0: 387a 403d 467a 793d 6579 b2bd 36cf 223d
000000d0: b4c3 273c 76de b7bc dc5c 63bc 4cfb ddbd
000000e0: 03fd abbd 311d 1a3d 5611 98bd 1022 423d
000000f0: aa78 49bc 8841 29ba 0f62 743d 64ba fb3c
00000100: 59da 66bc 6b6d 7ebc 1043 98bc 8adf 2ebd
00000110: 5585 6e3d ae6e 0cbd c2e5 84bd a4f6 3e3d
00000120: 4f36 833d e331 503d b6da d3bc 8dfd 97bd
00000130: dd47 9bbc d5f5 533d a182 6339 513d d2bc
00000140: bc9d 36bd 4cee b7bd eb52 e93c edec 8fbc
00000150: 095b c9bd 7468 57bd d7de 9c3d 6d19 b2bd
00000160: a539 083c 1c97 2fbd cfdf efbd de10 eabc
00000170: 6c98 1ebd 9667 633d 2231 ce3b 5dab babc
00000180: 3048 16bd 1528 a93d 5377 77bd a3ec 40bd
00000190: 7f04 b3bc f8f0 05bd c297 923d a0ba 0e3d
000001a0: 49c6 d83c 034f 383d 2380 7abd 710a bfbc
000001b0: 7c5b 833d 1512 f3bc 2492 543d 93f3 88bd
000001c0: 7aa1 d4bd 05a4 dbbc e7b0 cbbc 69de ccbd
000001d0: 2cd7 50bd 93ba 053a e4d5 923d 2cce 1bbc
000001e0: f37f 003d 3927 6dbd 9725 8a3d 98a1 babd
000001f0: 531a c4bc 8dc0 a4bd 0d8d 863b 30bb 02bd
00000200: 7bdb c4bc 9200 44bf f44d e83e ce5d 4c3f
00000210: 78f1 953e a1c0 733f f9f4 7cbf 2ffb c63d
00000220: 7976 1d3f 0c87 8b3f b672 42bf 5a4f d3bd
00000230: 8e68 77bf 5e33 b7be b9cf 613f d118 04bf
00000240: c41b 343f 5fc3 37bf b105 303f bbbe 273e
00000250: cfaa 8b3f bd3d 2bbf 976a 52be 5191 73bf
00000260: fe12 59bf 6adc 543f 0ec2 5e3f 31e7 123f
00000270: 464b 6bbf 5dfd 52bd ab03 64bf fe40 31be
00000280: 9167 283f 8d04 2cbd 6eab 2d3f e03b 0ebf
00000290: 4cf2 633f 80f6 313e 25d8 503f 8f67 823f
000002a0: 9840 1c3f 4bb6 7b3d ad7d 1abd eced 243d
000002b0: 95ad a53f 8951 f03d 98fe 243f a345 5ebf
000002c0: 6d9d 3e3f be9f 7c3f a45f 383f 8c15 61bf
000002d0: a11d 41bf a8d9 613d f154 71bf 09df 5d3f
000002e0: d864 38bf b791 713f c9c4 153f df60 533f
000002f0: b072 6b3f 23f8 b3be fbfd 363d 3c05 5cbd
00000300: 0fdc c33e b9e3 243f 44ba 073f 47fb a3be
00000310: 2533 183f 5509 2f3f e1fd 2cbf 83a1 69bf
00000320: e990 62be 8713 233d b368 7abf 7aad 69bf
00000330: befb 3bbb b286 a43f 7ca2 cbbe 5e5d 39bf
00000340: f148 31be bf9f 3c3f 83c6 7e3f c665 00bf
00000350: cab0 8a3f c8bf 1b3f 7078 67bc 7a88 63bf
00000360: 4eaf 273f 816b 9c3f 85f1 79bf c60c 283c
00000370: 10d5 63bf 83f2 203f 6ef2 44bf e236 873f
00000380: 117f 5e3f c76b 8bbd 87d6 843f aa56 1e3f
00000390: 1f31 023f e8d7 733f 6dae a4bd a869 2abf
000003a0: d1bf 8ebd f8b1 873f 036d c8bd 4589 273e
000003b0: 5bfa 833f d817 15be f470 1cbe b38d 123f
000003c0: e058 44be 869c 993f db0b 33bc 84a3 4c3f
000003d0: 793d 3b3f ed4a 1fbd 4312 31bd cbbd 243f
000003e0: abe5 1a3f 0717 2e3f c66a 933f 019e 6ebf
000003f0: 7cfa 373f 885e 4f3f 48fd 3b3f af9c 343f
0.019854695 -0.087796755 -0.06301793 0.019584205 0.041041262 -0.006471974 -0.08552383 -0.057386823
-0.055309877 0.04316202 -0.035773862 -0.08030429 0.029215805 -0.053127 0.055205807 -0.037375547
0.047938526 -0.032024037 -0.05897354 0.021985853 -0.06891246 -0.0026840298 -0.026827121 0.04612442
0.0459206 -0.02396274 -0.011212458 -0.07240428 -0.048020158 0.07305555 -0.06698371 -0.08839871
-0.045189742 0.08566121 0.016566552 0.068782814 -0.10804843 0.017169487 -0.001755045 -0.096907705
-0.004598727 -0.010370337 0.0010079419 -0.016252836 0.016619783 -0.06013747 -0.08802292 0.025098855
0.046991557 0.060907625 -0.087145604 0.039748393 0.01023953 -0.022444945 -0.01387712 -0.10838947
-0.083978675 0.037625495 -0.074251816 0.047395766 -0.012296835 -0.00064566033 0.05966383 0.030728526
-0.014090144 -0.015529017 -0.018586665 -0.042693652 0.058232624 -0.03428524 -0.06489135 0.046621934
0.06406843 0.050828826 -0.025861125 -0.07421408 -0.018955166 0.051748116 0.0002169707 -0.025664004
-0.04458402 -0.089809984 0.028481921 -0.01756903 -0.09831817 -0.05258985 0.07659691 -0.08696256
0.008314525 -0.04286872 -0.1171261 -0.028572496 -0.03871958 0.05551871 0.006292478 -0.02278679
-0.036689937 0.08259598 -0.06041653 -0.047100674 -0.02185273 -0.03270051 0.07157852 0.03484595
0.026461737 0.044997226 -0.061157357 -0.023320409 0.06413934 -0.029671708 0.051897183 -0.06687083
-0.10382362 -0.026811609 -0.024864627 -0.10003359 -0.050986454 0.0005101349 0.07169703 -0.009509604
0.031372022 -0.057898734 0.06745451 -0.09112853 -0.023938334 -0.08044539 0.00410617 -0.031916797
-0.024030438 -0.7656337 0.45371974 0.79830635 0.2928579 0.95215803 -0.988113 0.09715878
0.615089 1.0900588 -0.75956285 -0.103178695 -0.9664391 -0.35781378 0.88207585 -0.51600367
0.70354867 -0.7178249 0.68758684 0.16381352 1.0911502 -0.6689108 -0.20548473 -0.9514361
-0.84794605 0.83148825 0.87014854 0.5738402 -0.91911733 -0.051511157 -0.89068097 -0.17309949
0.6578303 -0.041996527 0.67839706 -0.5556011 0.8904159 0.17379189 0.8157981 1.0187854
0.6103606 0.061453145 -0.03771751 0.040265962 1.2943598 0.117343016 0.6445098 -0.8682501
0.7445896 0.9868125 0.72020936 -0.879235 -0.75435835 0.055139214 -0.94270235 0.8666845
-0.72028875 0.9436297 0.58503395 0.8256969 0.91971874 -0.3515025 0.04467581 -0.05371593
0.3825383 0.6440998 0.53018594 -0.32027647 0.5945304 0.68373615 -0.6757489 -0.9126207
-0.22125591 0.039813545 -0.9781601 -0.9128033 -0.0028683986 1.2853606 -0.39772403 -0.7240809
-0.17312981 0.73681253 0.99521655 -0.50155294 1.0835202 0.6083951 -0.014127836 -0.8888012
0.6550187 1.2220308 -0.97634155 0.010256952 -0.8899698 0.62870044 -0.7693242 1.0563624
0.8691264 -0.06807666 1.0377969 0.6185099 0.508562 0.9525132 -0.080410816 -0.6656747
-0.0697018 1.0601187 -0.09786417 0.16360958 1.0310777 -0.14559877 -0.15277463 0.57247466
-0.19174528 1.2000892 -0.0109281195 0.79937005 0.73140675 -0.038889814 -0.043230306 0.643521
0.60506696 0.68003887 1.151696 -0.93209845 0.71866584 0.8100362 0.7343335 0.7055158

model.6.bias f4 [128]
00000000: 8d14 cebd 57bb 6b3e 5224 49bd 7858 df3e
00000010: 97cb 2f3e 3e53 c8bc 5c54 8cbd ecc1 ad3c
00000020: 17cd b33e ed0a ed3e d5b2 ed3d f7e5 29bd
00000030: dd55 b5bd 98d1 923e 1af4 b93e 5911 9a3e
00000040: d3fa 1abe 56a1 bf3e d9b9 3e3c b9f5 c13e
00000050: 63d0 993e 8bc3 143f af29 bb3d 6e97 ed3b
00000060: e0b0 953e 2177 91bd 8093 f63e 3b64 d93e
00000070: 8579 0a3f df3c 393d b36e 11be 09f4 b93e
00000080: d4b5 e63d 2da8 0f3f 0d18 bf3e 1b3a bc3e
00000090: f43b a13e 473d a93e 1cc4 9bbd 2aa8 8c3d
000000a0: 003f d4bd 7925 063f 806f 643e 4a8e c33e
000000b0: cb68 57bd bf75 903e 9b40 fb3e b2aa 8a3e
000000c0: e720 12bd 0365 dd3e 0597 0b3f 261c af3e
000000d0: db74 933e cb6b 9ebd 1aa7 c83e f1cd c33e
000000e0: 0061 c3bc 9e6c 143f b848 953e a0f3 c6bd
000000f0: a606 c23c 9187 8e3e b0ba e4bd ad52 ac3b
00000100: 2279 5e3f 3dfc 70bd 5e09 4e3f bdd9 cb3e
00000110: 289a 3dbd e04b b3be cef5 be3e dccb 25bd
00000120: 1478 b03e f646 af3b 1b17 0d3f c39d 043f
00000130: 33b9 bb3e f72d 3bbd 242c bc3e 96f8 0c3f
00000140: 82a9 033d 64c7 0cbe 0a89 a73e 4207 5dbd
00000150: cf4f 8b3e fb7b 013f 5315 41bd 2d6d 2d3e
00000160: 4b69 883e 4d87 e83e 6cbb 783e bccf f83d
00000170: b389 ae3e e8b8 b03e 6235 023d 4167 cfbc
00000180: be4c b4bd a1d5 cb3e 4e91 4f3c ca20 88be
00000190: 67ea d33e 2ecd c63e 1ccb 223f b6b7 ad3e
000001a0: 3c5c d13e 020e 37be 7687 bd3e eb57 0c3f
000001b0: 2fa9 1ebe 9bfa 813e 2ee0 943e 1a9b 193f
000001c0: bd93 04be 591a 1e3f d210 9d3e 7ecc a43e
000001d0: 11ac aa3d 9064 963e f557 5cbc aff8 b5bd
000001e0: a59f 8a3f a1aa 873e 70f3 473e c7e7 f03e
000001f0: aac0 17bd 5b61 233f de1d 813d dc1e 273f
-0.100625135 0.23020683 -0.049106903 0.43622184 0.17167507 -0.024453755 -0.06852028 0.021210633
0.3511741 0.46297398 0.11606375 -0.041479077 -0.08854268 0.28675532 0.36319047 0.3009136
-0.15134744 0.37427777 0.011640989 0.37882784 0.300418 0.58110875 0.0913881 0.007250718
0.29236507 -0.071028 0.4815941 0.42459282 0.54091674 0.045224067 -0.14202385 0.36318997
0.1126515 0.5611599 0.37323037 0.3676308 0.31491053 0.33054563 -0.07605764 0.06868012
-0.10363579 0.5240093 0.22308159 0.38194495 -0.052590173 0.28214833 0.49072728 0.27083355
-0.03567591 0.43241128 0.5452731 0.34201163 0.2880009 -0.077354036 0.39189988 0.38243058
-0.023849964 0.57978237 0.29157043 -0.097144365 0.02368481 0.27837804 -0.1116842 0.005258879
0.86903584 -0.058834303 0.80483043 0.3981456 -0.046289593 -0.35018826 0.3729691 -0.04047762
0.34466612 0.0053490354 0.5511338 0.51803225 0.36664733 -0.045698132 0.36752427 0.5506681
0.032144077 -0.13747936 0.3272174 -0.053962 0.27209327 0.50579804 -0.047139477 0.16936179
0.26642832 0.45415726 0.24290246 0.12148997 0.3408943 0.34516072 0.03178919 -0.02531779
-0.088037 0.39811423 0.012668921 -0.26587516 0.41389772 0.38828415 0.6359117 0.33929223
0.40890682 -0.17876437 0.3701741 0.5482165 -0.15494226 0.2538651 0.29077286 0.6000229
-0.12946983 0.61758953 0.30676895 0.32187265 0.083336 0.29373598 -0.013448705 -0.08885323
1.082997 0.26497367 0.19526458 0.47051832 -0.037048973 0.6382043 0.06304525 0.6528146

model.8.weight f4 [2, 128]
00000000: 3d71 5dbc b246 7f3f 771e b0bc 7c70 8bbf
00000010: 9e1b 6c3f 0c58 a0bd 2133 8a39 f98c bc3b
00000020: 8458 513f 1f9e 4c3f 46a9 5b3f 77bb 16ba
00000030: c70b 7f3d 621f 783f eba0 783f 10d4 413f
00000040: a4f5 9bbf 6349 503f 8d52 58bd 1b4a 603f
00000050: d95d 90bf 9aff 383f 0278 1f3f cc3d 7cbf
00000060: eafe 90bf 698f 5ebd df3b 3e3f 1ac0 573f
00000070: d362 95bf dbc2 623f f898 8fbf c0fe 93bf
00000080: 2ea8 223f 3746 90bf 0242 683f 806e 483f
00000090: 04c6 4b3f 10ca 803f 7b28 a1bb 4dd7 663f
000000a0: 6397 9dba 1471 683f ac80 95bf ff22 6c3f
000000b0: e5d7 1d3d 9974 95bf 3cb7 4c3f d653 593f
000000c0: aad1 ce3c 95d4 95bf ecf9 643f f88f 703f
000000d0: f417 62bf 781d 1ebd e566 afbe bc5d 523f
000000e0: 305b ed3b c281 90bf d448 793f b31c 61bd
000000f0: 29be 9cbd abd4 89bf 0ceb 98bf f185 6fbf
00000100: 3eef 22bf b569 5ebd b698 81bf 3c70 4b3f
00000110: ce31 a73c fe31 453f 9248 833f 477f 3aba
00000120: fd2a 413f 62c6 75bf 5844 6b3f 97e5 3f3f
00000130: c674 5dbf 799d 8cbf bbf2 513f 46e5 93bf
00000140: 9d30 7dbf 198b 94bf 5d0d 4f3f 7713 e8bb
00000150: 9234 8abe 6aba 3d3f 8b59 e03a dd34 1e3f
00000160: 3e8a 8fbf 5d37 413f 8eff 7c3f b173 89bf
00000170: c589 94bf 0152 4d3f 5058 683f 9ea5 08bc
00000180: fd65 b9bc c958 51bf 067f 623f a847 5e3f
00000190: b58f 4a3f e05b 403f e1c7 213f 8bcb 95bf
000001a0: f1a2 743f 9af6 7cbf 4c5e 8cbf 6e62 633f
000001b0: f2ef 89bf 7d7c 853f 53be 823f 2800 703f
000001c0: 8ee1 94bf 13bc b83e 3807 82bf b0dd 4c3f
000001d0: 7ac1 8dbf cceb 613f 68a4 81bf d039 2abd
000001e0: 98a6 4ebf d3e5 91bf 127c 843f 205c 91bf
000001f0: 3376 35bd 5eda 94bf 9a3b 89bf 283f b6bd
00000200: 5865 563d f45e d93e ec2f 9dbd 36fa 48be
00000210: f02e 3fbf b157 0b3d 725b 8e3d 26af 243d
00000220: a7c0 acbe 0f6f f0be 5871 a03f 2968 873c
00000230: 9207 483d 04b4 18bf b2e7 abbc 3ef4 f5be
00000240: 4e36 3fbf f13f ddbe 5f10 f53c 0768 a7be
00000250: dce2 9cbe c023 1fbf c802 5f3f 6631 6ebf
00000260: af1a 8b3e 6638 79bd badf 1cbf f3d1 e6be
00000270: 6ffe b3bd 4f5f 44bf 9fb8 52bf 776f 5cbe
00000280: c8db 8b3f baf4 35be 5acc 043f 31c8 20bf
00000290: f3cc 1fbf 43eb 2b3e c3ce 203d 9e95 53bf
000002a0: 201a 523d 7254 203f 3467 35be ab85 63be
000002b0: 4f5d 14bd fbd2 cdbe 7d7b 2abf e535 2bbf
000002c0: 86f9 d9bc 9828 98be 924c cdbf 89ab 4cbe
000002d0: 339f 673f 8612 e83b ec40 b53f 5bb6 04bf
000002e0: c7ab a6bd 4733 0ebd e1cf ae3d 53be f0bc
000002f0: 6a81 083d 90f8 253f f661 24bf 9101 8abf
00000300: 5ece 95bf 7b42 90bd f14f a8bf d1b0 21bf
00000310: beec 3f3d 2f1c a4bf e40e 013e 41ec 48bc
00000320: d0d4 1cbf 2fa1 7fbf 3b85 83bf b98b 1ebf
00000330: 2f03 773f ba8b 7f3f ca44 f5be 8cdc c9bd
00000340: 0f04 73bf f34c 6dbf ac96 10bf 7dc7 76bd
00000350: 5810 9a3f 78db 05bf 6103 013a bbe6 613f
00000360: 7acb 9cbe 07c9 16bf f1b5 df3e cdb9 2e3f
00000370: b391 b6be 2ab6 15bf 4b30 83bf 831a 61bc
00000380: a243 223d 66ff e23f df91 44bf 6c01 90bf
00000390: 892a 18bf 031e 1bbf 7ef6 e5bf 0223 6bbe
000003a0: 168c 1e3f 74bd 58bf 1b59 5a3e ef26 a1bf
000003b0: 5401 6bbf a5d5 803e e061 f73e 845f aebf
000003c0: e58f 21bf f79e eabf 86ef 393f 5064 1fbf
000003d0: 1b6b 203f c0e8 32bf 82ed 5bbf 0afa 883c
000003e0: 40d4 96bf eb4b f23d 4553 bb3e c3e2 dabe
000003f0: a31f c0bc 0a85 803d 127d 283f 4197 ddbf
-0.013515768 0.9971725 -0.021498902 -1.0893703 0.9222964 -0.078292936 0.00026359505 0.00575411
0.8177569 0.79928774 0.85805166 -0.00057499803 0.06226709 0.96922886 0.9712054 0.75714207
-1.2184339 0.8136198 -0.0528131 0.87613076 -1.127864 0.7226502 0.6229249 -0.98531795
-1.1327794 -0.054335985 0.74310106 0.842775 -1.1670784 0.88578576 -1.1218557 -1.1562119
0.6353787 -1.1271428 0.9072572 0.7829361 0.7959902 1.0061665 -0.0049181557 0.9017227
-0.0012023266 0.90797544 -1.1679893 0.922409 0.03853597 -1.1676208 0.79967093 0.8489355
0.02524646 -1.17055 0.8944385 0.9396968 -0.883178 -0.038602322 -0.3425819 0.8217428
0.0072435364 -1.1289599 0.9737675 -0.05495901 -0.07653458 -1.0768026 -1.1946731 -0.93563753
-0.63646305 -0.05430003 -1.0124729 0.7946813 0.02040949 0.7702941 1.0256522 -0.0007114303
0.7545622 -0.96005833 0.9190116 0.749597 -0.8650631 -1.0985557 0.82011 -1.1554344
-0.98902303 -1.1604949 0.80879766 -0.0070823985 -0.26993233 0.7411257 0.001711653 0.6179941
-1.1214063 0.754751 0.98827446 -1.0738431 -1.1604544 0.80203253 0.90759754 -0.008340267
-0.02263164 -0.817761 0.8847507 0.8682809 0.7912553 0.7514019 0.63195616 -1.1702741
0.9556113 -0.98813784 -1.0966277 0.88822067 -1.077635 1.0428616 1.0214332 0.9375024
-1.1631334 0.3608099 -1.0158453 0.8002577 -1.1074669 0.8825042 -1.0128298 -0.04155904
-0.8072295 -1.1398262 1.0350363 -1.1356239 -0.044302177 -1.162914 -1.0721314 -0.08898765
0.052342743 0.42455256 -0.07675156 -0.19626698 -0.74680996 0.034019176 0.069510356 0.040206097
-0.33740732 -0.4695973 1.253459 0.01652916 0.048835345 -0.5964968 -0.020984504 -0.48037905
-0.7469224 -0.43212846 0.029915033 -0.32696554 -0.3064183 -0.62163925 0.8711362 -0.93044126
0.27168795 -0.0608448 -0.6127888 -0.45082054 -0.08788764 -0.7670793 -0.8231296 -0.21526895
1.0926447 -0.17769137 0.51874316 -0.6280547 -0.624221 0.16788964 0.039259683 -0.8265017
0.051294446 0.62628853 -0.1771515 -0.22218959 -0.0362218 -0.40200028 -0.6659468 -0.6687911
-0.02660824 -0.2971847 -1.6038992 -0.1998731 0.90477294 0.0070822863 1.4160438 -0.5184075
-0.08138233 -0.03471687 0.085357435 -0.029387629 0.033326544 0.648324 -0.64211977 -1.0781728
-1.1703603 -0.0704393 -1.3149396 -0.63160425 0.046856634 -1.2821101 0.12603337 -0.012263359
-0.61262226 -0.9985532 -1.0275034 -0.6193195 0.9648923 0.9982258 -0.47904044 -0.09856519
-0.9492807 -0.9269554 -0.5647991 -0.06024884 1.2036238 -0.5228801 0.0004921463 0.8824269
-0.3062399 -0.58900493 0.43693498 0.6825226 -0.35658035 -0.58481085 -1.0249113 -0.013739231
0.03961528 1.7734191 -0.7678508 -1.1250434 -0.59439903 -0.6059267 -1.7965848 -0.22962573
0.61932504 -0.8466408 0.21323054 -1.2590007 -0.917989 0.25162998 0.4831686 -1.3622899
-0.6311019 -1.8329762 0.7263111 -0.6226244 0.6266343 -0.698864 -0.85909283 0.01672079
-1.1783524 0.118308865 0.36586967 -0.4275113 -0.023452586 0.06275375 0.6581584 -1.7311784

model.8.bias f4 [2]
00000000: d66d dc3c abe2 703c
0.026907843 0.014702479
